PlanteD_Plant-Disease-Detector/.dart_tool/chrome-device/Default/optimization_guide_prediction_model_downloads/41796bfe-842d-4dfe-9cb9-b15216fdcb0b/model.tflite (tflite, 67216 bytes, 5 tensors)

dnn/hiddenlayer_1/bias/part_0 f4 [64]
000000 85 e9 9f bd 60 00 79 3c d8 9e 4e 3d 50 78 32 bc
       -0.07808212 0.015197843 0.050444454 -0.010892943
000010 28 0d 8b 3c 84 ce 66 3d b9 1a cf bc 1a f6 b8 3d
       0.016974047 0.056349292 -0.025281297 0.09031315
000020 54 95 76 3d ff 17 8c bb 53 ec 50 3d 92 a1 2d bd
       0.060201004 -0.0042753215 0.051006626 -0.042390414
000030 50 49 0d 3c 44 4e 62 bd 08 bd c5 3c cc 0f 28 bc
       0.008623436 -0.05525042 0.024137989 -0.0102576725
000040 5e 50 aa 3d 30 aa 1a bd 3b b0 46 3d b2 42 a6 bb
       0.0831611 -0.03775996 0.04850791 -0.0050738687
000050 05 f5 f1 bc 2c 1a 56 3c eb 4b 47 bd 40 b0 e3 bc
       -0.02953578 0.013067763 -0.048656385 -0.027794003
000060 ba 62 81 bd 87 47 5d bb 9b 88 e8 bc 43 11 a0 3d
       -0.06317659 -0.0033764557 -0.028385451 0.078157924
000070 32 74 a7 3d 09 15 ba 3c 93 15 23 3d 21 7c 6c bd
       0.08176459 0.022715108 0.039815497 -0.057735566
000080 2c 9f fb bb 4b 9b b2 3b 23 f5 3f 3d 11 c2 71 3c
       -0.007678887 0.0054506413 0.04686464 0.014755742
000090 e9 72 01 bb 72 07 c9 3c 64 4b a6 bc cb e2 77 3d
       -0.001975233 0.024539683 -0.02029962 0.06051902
0000a0 73 c9 7e bd b2 1a 37 3c 0f 87 86 bd b6 98 d7 bc
       -0.062203836 0.011175798 -0.06568729 -0.026317935
0000b0 67 e6 2c bd 60 39 f9 bc 7b d5 80 bc e1 fb 57 3d
       -0.042211916 -0.030422866 -0.015726795 0.052730445
0000c0 67 52 76 3d 60 11 44 3d 2f f5 4e bd 7a 86 01 bb
       0.06013718 0.047868133 -0.050526794 -0.0019763992
0000d0 16 a1 80 3d 73 fe 17 bc 7e ab e3 3b a6 0c dc 3c
       0.06280725 -0.009276974 0.0069479337 0.0268615
0000e0 51 5a 3b 3d d5 dc 6c 3b ce e6 ab 3d aa e9 5c bc
       0.04574043 0.0036142368 0.08393632 -0.013483444
0000f0 cf 3c ef 3b d6 15 95 bc 4e bd 0f bd 64 8a 8b 3d
       0.00730095 -0.018198889 -0.035092644 0.06813505

dnn/hiddenlayer_0/bias/part_0 f4 [128]
000000 8e 0c 19 3b 31 de 5c bd 57 8b 23 3d 17 b0 82 3a
       0.002335343 -0.053922836 0.039927807 0.0009970692
000010 f1 4f aa 3d af a0 dd bc 5f eb e1 3d 6b fd c7 3a
       0.08316029 -0.027054159 0.110312216 0.001525802
000020 28 45 78 3b 97 f9 53 bc b9 75 1b 3d 62 36 e9 3c
       0.0037883017 -0.012937925 0.037954066 0.028468315
000030 ee bc bb 3c 6b 5c 22 bd 95 3b bd 3c 74 53 09 be
       0.022917237 -0.039638918 0.0230997 -0.13410741
000040 34 a3 90 3d 1c e9 a6 3c 4f 91 ad 3d 38 28 4f bd
       0.070623785 0.020374827 0.08474981 -0.050575465
000050 a8 83 4c 3d 1f e0 df 3c d4 e9 0b bd d3 e4 c9 bc
       0.049930245 0.027328549 -0.034158543 -0.024645245
000060 64 c1 8f 3d 0c b3 31 3d b5 95 5e 3d 70 d8 27 bd
       0.07019308 0.043383643 0.05434199 -0.040977895
000070 a3 13 c7 bd ba 82 01 bc b1 68 1f 3d 8b 36 57 be
       -0.09720542 -0.007904703 0.0389182 -0.210169
000080 85 bb 80 3d f8 08 37 bb 84 9f 64 3c 5c 02 5d bc
       0.062857665 -0.002792893 0.013954047 -0.013489332
000090 ee 55 71 bc 6d fd 52 bd cb df 26 be b8 a3 93 bd
       -0.01472996 -0.051511217 -0.16296308 -0.07208961
0000a0 d7 1a 5c bd 79 b9 a3 bc 11 a6 33 3d 16 48 e7 bc
       -0.053736534 -0.019985901 0.043859545 -0.028232615
0000b0 59 53 1f 3d 7b 2a 48 3d 6b f1 f3 3c 56 25 b9 bb
       0.038897846 0.048868638 0.029778203 -0.0056502027
0000c0 b1 5f cc bd 05 e6 c4 bd 35 5c b3 bc 53 1c 04 3d
       -0.09979189 -0.09614185 -0.021894554 0.032253575
0000d0 4d b0 1c 3d 71 87 00 bc f8 5c f6 bc 79 7c d5 bc
       0.03825407 -0.007844792 -0.030073628 -0.02606033
0000e0 bf 94 51 bb c8 33 bc bc ab 74 93 3c 35 d6 43 3c
       -0.0031979529 -0.02297391 0.017999968 0.011952926
0000f0 fd 2e f4 3c 8d e1 9d bd 9d 0f 3f 3d c2 80 a2 bc
       0.029807562 -0.07709036 0.04664575 -0.019836787
000100 25 98 be 3c ad b2 95 3d 63 2f e0 bd f1 1f 46 3d
       0.023265908 0.0730947 -0.10946538 0.048370305
000110 f8 a8 e8 3c ba 40 0d 3c b6 b7 45 3d 1c 2a 6f 3b
       0.028400883 0.008621389 0.048270904 0.0036493605
000120 23 25 4e 3c b7 54 e7 3d 4e 7f 49 bc b4 23 1d bc
       0.012582096 0.11295455 -0.012298418 -0.009591032
000130 0b 23 3d bc 9d 88 84 bd a5 df ff bd 6a b8 1d 3a
       -0.011543999 -0.064713694 -0.12493829 0.00060165545
000140 46 c0 88 bc e2 46 d1 3c 99 c6 b5 bc b2 90 29 be
       -0.016693246 0.025546495 -0.022189425 -0.16559103
000150 b3 ae 37 3d 6b de b5 3a d9 bc aa bd 16 44 f9 3c
       0.04484434 0.001387549 -0.08336801 0.030427974
000160 1c 12 1a ba 21 87 49 3d 53 1f 19 be 53 eb 63 bd
       -0.00058773323 0.049201135 -0.14953355 -0.055644345
000170 d9 13 7a 3d ed 78 93 ba d1 7c 53 3d 3c 59 4e 3c
       0.061054084 -0.0011251249 0.051632706 0.012594517
000180 0d b2 7d 3d 9c 37 37 3d ae 1b b9 bb c0 5b db bd
       0.06193738 0.044730768 -0.0056490516 -0.10710859
000190 fc f1 4e 3d fc 5e 8b 3d 4e 73 2f 3c 5c 85 d7 3c
       0.050523743 0.06805226 0.010708643 0.026308708
0001a0 c8 2f 0a 3c 49 79 cf 3c a9 0d 0e bc 1f ba 80 bc
       0.0084342435 0.025326388 -0.008670249 -0.01571375
0001b0 70 8b 35 bd e7 c3 9a 3d 44 67 4b bd 8e b3 3b 3d
       -0.04432243 0.07556897 -0.04965903 0.045825534
0001c0 31 5e 26 bd c0 ed 33 3c ab 50 18 3c c8 7d 67 bd
       -0.04061717 0.010981977 0.0092965765 -0.05651644
0001d0 6e 40 c9 3d 48 36 bc 3b 97 39 0d bd 5a e6 94 bc
       0.09826742 0.0057437755 -0.03447875 -0.018176246
0001e0 43 a7 ce ba e9 bd dc 3c 51 fd e5 bc a7 e8 de bb
       -0.0015766401 0.026946025 -0.028074892 -0.0068026367
0001f0 72 c1 63 bc fc 55 80 bc 13 53 cf bd a3 f3 76 bc
       -0.013901101 -0.015666 -0.10123267 -0.015072736

dnn/hiddenlayer_0/MatMul f4 [128, 12]
000000 9c ad a9 bd f4 fa 08 3d e0 8f 4a be 36 d2 3e be
       -0.082850665 0.033442453 -0.19781446 -0.18634877
000010 17 a6 63 bd 86 54 3b bd 7a 55 7a 3d 79 6b 62 be
       -0.055578317 -0.045734905 0.061116673 -0.2211131
000020 7d d9 5d 3d 41 8c 66 3e 95 48 65 3d a5 04 9d 3e
       0.05416249 0.2251444 0.055977423 0.30667606
000030 c7 0b d4 3b b7 d3 22 3e e3 b8 6e 3b f5 57 ad bc
       0.0064711305 0.15901075 0.003642612 -0.021160105
000040 df 12 2b 3e c3 3a b3 3d 59 ce 95 3c ae b8 19 3d
       0.16706418 0.08751442 0.01828687 0.03752964
000050 16 8b 4c 3e d7 f3 55 3e 16 ad b3 3c ac eb 65 3e
       0.19974932 0.20893799 0.02193312 0.22453183
000060 4c f4 15 bd ca 9d 66 3d c0 50 86 3d 7a 89 8f bd
       -0.036609933 0.056302823 0.065583706 -0.070086434
000070 15 82 82 3c 5d 28 a8 3d 7c f0 50 3d b7 95 28 be
       0.015931169 0.08210824 0.051010594 -0.16463362
000080 6d 46 b3 3d b1 b4 50 3e 7c 21 cc 3a 8f 9f 6e 3e
       0.08753667 0.20381428 0.0015573944 0.23303054
000090 4b 5d 15 3e 67 10 fc bd cf 33 37 3e af ba 8b bd
       0.1458637 -0.12307816 0.17890857 -0.068227164
0000a0 af aa b5 3d 0a 72 59 be f8 0a 6c bd a0 94 23 be
       0.08870446 -0.21234909 -0.057627648 -0.15974665
0000b0 f7 d5 fb bd 80 90 ee 3d d1 0a 72 3a 91 6d c0 bd
       -0.1229667 0.11648655 0.0009233179 -0.09395898
0000c0 db e0 3a 3e be 1b 37 3e b1 c6 ef 3c 21 84 12 be
       0.18249838 0.17881677 0.029269548 -0.14308216
0000d0 02 ae 34 3e 96 75 c8 3d 13 00 0b 3e 9c b9 25 bc
       0.17644504 0.09788053 0.13574247 -0.0101150535
0000e0 d0 2e 34 bd 95 80 82 be 76 a4 18 bc a8 b9 25 3e
       -0.043989956 -0.25488725 -0.009316554 0.16184103
0000f0 ba be 13 be b6 84 ea bd b6 c4 5d 3e 30 c6 c8 ba
       -0.14428225 -0.11451094 0.2165707 -0.0015317854
000100 8e a6 cf bd 43 8d 14 bd e2 59 60 3d fd 05 14 3d
       -0.1013919 -0.03626753 0.05477322 0.036138523
000110 7b e9 37 bd 13 b5 18 be 00 f0 93 3c bb 3a 51 3c
       -0.0449004 -0.14912824 0.018058777 0.01277035
000120 ea 23 1b be 46 29 2a bd 9b a5 25 be 9b 8e a1 bd
       -0.15150419 -0.041543268 -0.16176455 -0.07888528
000130 0a 0f bb 3c 37 8b 0e 3d 96 d4 94 bd 8f 03 0b be
       0.02283432 0.034800734 -0.0726711 -0.13575576
000140 37 cb 10 3d 96 5e 50 bd cf f6 17 3e c0 a7 55 be
       0.03535005 -0.050871454 0.14840244 -0.20864773
000150 e0 82 ae bd f4 0b ff 3b 37 db 47 3d 18 22 14 be
       -0.08521056 0.0077834073 0.048793044 -0.1446613
000160 55 08 04 be d0 17 18 3e 76 15 eb bd f0 ff f9 bd
       -0.12893803 0.14852834 -0.11478703 -0.12207019
000170 a7 d5 ec bc 44 c1 6a bc e4 d2 6f be 88 ed 2c bd
       -0.028910471 -0.014328305 -0.23420292 -0.042218715
000180 d7 2f 1a be c3 be 94 bd fa 63 26 3d d9 07 43 3d
       -0.15057312 -0.072629474 0.04062269 0.047614906
000190 13 86 49 be 60 e9 45 3e ce 8b 32 3e 85 f9 34 be
       -0.19680052 0.19327307 0.17436144 -0.17673309
0001a0 84 89 b4 bd c3 c2 8b 3d bf d4 3a 3e 76 39 0d 3e
       -0.088152915 0.06824257 0.18245219 0.13791451
0001b0 5a 8f bd bd df eb b5 3d 0f 5c 07 bc 67 7d 64 be
       -0.09255858 0.088828795 -0.008261695 -0.22313462
0001c0 e7 a2 3e be b6 a2 e2 3c 28 eb 04 3e d1 1e c5 3c
       -0.1861683 0.027665477 0.1298033 0.024062546
0001d0 84 ea 9b bd 27 d1 1b be d1 80 f5 3d 89 50 8b bd
       -0.0761309 -0.15216504 0.119874604 -0.0680247
0001e0 88 f6 f5 3d a0 ed 57 bd 2d 08 eb 3d 1d 03 49 3e
       0.12009913 -0.05271685 0.11476169 0.19630094
0001f0 54 67 a8 3d fe b0 25 3e 28 c4 96 bc f8 4b b9 bd
       0.08222833 0.16180798 -0.018404081 -0.09047693
000200 b9 06 62 bc 87 cf d2 3d ac c2 13 bd 24 2b d7 bd
       -0.013795548 0.10293489 -0.036074325 -0.10506275
000210 7c bc 79 3d 6c 3c 3c be 01 53 b4 3d d8 85 e7 3d
       0.06097077 -0.18382424 0.08804894 0.113048255
000220 35 69 1c bd 19 60 d8 3d 21 5f 74 bd f2 97 9f 3d
       -0.03818627 0.10565204 -0.059661034 0.07792653
000230 79 aa 16 bd f4 6b 2a 3d f0 e3 68 be 15 c0 3d 3d
       -0.03678367 0.04160686 -0.22743201 0.04632576
000240 a3 66 30 3e 00 cc b6 3d 91 8d 18 3e ee fe ee 3d
       0.17226653 0.08925629 0.14897753 0.11669718
000250 77 10 33 be 54 73 ea bd 7b 53 21 3c 49 1e 1b 3e
       -0.1748675 -0.11447778 0.009846563 0.15148272
000260 c0 75 e4 bd d0 98 8f bd df 1b 62 3e ab 72 a5 bd
       -0.111552715 -0.070115685 0.22080944 -0.08078512
000270 71 4d 1a 3e aa 09 1e be 17 0d 65 3e 67 5f 04 be
       0.15068604 -0.15433374 0.22368275 -0.12927018
000280 b8 16 1d be d8 26 34 be d7 78 d9 bd 37 e8 fe 3d
       -0.15340698 -0.17592943 -0.106187515 0.12446635
000290 60 7a 3d 3e 33 c7 64 ba 7b dd 4d bd 64 b7 b4 bc
       0.18503714 -0.0008727193 -0.05026005 -0.022060104
0002a0 87 0b 58 be e7 51 be bd fb 1e 00 be 4d c2 6e 3b
       -0.21098147 -0.092929654 -0.12511818 0.003643173
0002b0 eb f1 df 3d 12 83 7d 3b 12 11 b4 bb 93 cc 06 3e
       0.10934814 0.003868286 -0.005495199 0.13163976
0002c0 f9 f5 22 be 51 8b 29 be e6 b3 a0 bd 25 0f 91 bd
       -0.15914144 -0.16557051 -0.07846813 -0.07082967
0002d0 c1 56 d6 3d fe 1c 03 3d ab de 50 bd fd 94 95 bd
       0.10465766 0.03201007 -0.050993603 -0.07303808
0002e0 88 ca 11 3e fa 51 1c 3e 0c aa 8b be 83 59 a9 3d
       0.14237416 0.15265647 -0.27278173 0.08269026
0002f0 e7 22 5f bd 9f 94 b8 3d d0 b3 06 be f5 eb eb bd
       -0.054476645 0.09012722 -0.1315453 -0.115196146
000300 97 aa a8 bd 41 60 16 3e ef 6e a2 bd 11 22 27 3e
       -0.082356624 0.14685155 -0.07931315 0.16321589
000310 59 9d 0a be 27 66 01 3e b1 92 79 be f8 00 40 3d
       -0.13536586 0.12636624 -0.24372365 0.046875924
000320 13 86 41 bd 2f d8 14 be 70 a6 c5 39 a4 ad 3d 3e
       -0.047247004 -0.14535592 0.00037698774 0.1852327
000330 e6 06 b0 bd b6 82 2e bb 24 04 80 3e 1a 39 d8 bd
       -0.08595066 -0.0026628203 0.2500316 -0.10557766
000340 f9 77 b3 bd 63 c3 63 3d f3 7a c9 bd 1c 2f f6 3c
       -0.08763117 0.055606257 -0.09837904 0.03005176
000350 f6 7d dc 3c fe af 9c 3d 72 4f 85 be 03 17 95 3d
       0.026915532 0.07650755 -0.26037174 0.0727978
000360 69 33 2c 3d b6 a3 5a 3e e0 6d 23 3e bd d4 43 3e
       0.042041216 0.21351513 0.15959883 0.19124122
000370 3a 3d 20 3e be 3b a1 bd 7f bd f0 3c a2 90 00 be
       0.15648356 -0.07872723 0.029387234 -0.12555173
000380 4b b1 f0 bd 31 65 80 3e 2a 30 1d 3e 45 2d 1b 3e
       -0.11752566 0.25077203 0.15350404 0.15153988
000390 26 bb be bd ba 9f cb 3d 02 a9 b4 bd cc ba 82 3d
       -0.093130395 0.09942575 -0.08821298 0.06383285
0003a0 7c 38 4e 3e 86 1a 02 bd 23 31 7b be d7 03 85 3c
       0.20138735 -0.031763576 -0.24530463 0.016237183
0003b0 c0 d9 de 3c 18 ea 03 be 2c c4 b1 bd 1b ea 10 bd
       0.02720344 -0.12882268 -0.08679995 -0.03537951
0003c0 b1 4d 3f bd 85 a8 d7 bd c1 e3 23 3c f1 e8 7e 3d
       -0.04670495 -0.105301894 0.010003031 0.06223387
0003d0 70 ed 43 3e e9 f5 bd bd 1b 25 25 3e b3 64 a2 bd
       0.19133544 -0.09275419 0.16127436 -0.07929363
0003e0 a9 a4 d6 bd 13 3e 20 3d e3 fe 91 3d 56 29 11 be
       -0.10480625 0.0391217 0.07128694 -0.14175925
0003f0 d9 75 31 3e 1a 83 1c 3d 20 bd e3 3d 03 48 10 3e
       0.17330112 0.038210966 0.11120057 0.1408997

dnn/hiddenlayer_1/MatMul f4 [64, 128]
000000 c8 f7 58 bd 1a 02 ab 3d e0 0e 81 bd ad 87 24 3e
       -0.052970678 0.0835001 -0.06301665 0.16067381
000010 bb 73 13 bb 8a ea df bd 42 69 86 3c 01 77 0f 3e
       -0.00224994 -0.10933407 0.016407613 0.1401024
000020 65 ba 0d be 95 3d 02 be 42 3d b2 3d 5b 90 64 bd
       -0.13840635 -0.12718804 0.0870309 -0.05580173
000030 c5 1e a5 bd 3b b7 03 bc 5a fb 98 bd c1 1d a5 3c
       -0.080625094 -0.008039291 -0.074698165 0.02015579
000040 c1 ad bb bd 5e e6 30 be 17 87 04 3e a5 c5 e0 3d
       -0.09164 -0.17275378 0.12942158 0.10975198
000050 99 34 ee 3d c0 3a c7 3d 2d 43 6d 3e 24 c4 c5 3c
       0.11631126 0.097280025 0.23170157 0.024141379
000060 d1 c6 95 bd ff 4a ae bd 75 14 85 3c 4f e4 f8 3d
       -0.07313312 -0.08510398 0.016245106 0.121529214
000070 dc eb f3 ba 3e a7 93 bd e8 d8 d8 3d 81 ba 7f 3e
       -0.001860972 -0.07209633 0.105882466 0.2497349
000080 f7 ef 2e bd a7 bf 83 bd b5 9d 79 bd a9 e9 97 bd
       -0.042709317 -0.06433039 -0.060941417 -0.07417614
000090 7b 89 1a 3e 06 95 f9 bd 66 c1 31 3c be 75 30 be
       0.15091507 -0.12186627 0.010849332 -0.17232415
0000a0 08 5c b9 3d e3 a1 e4 3d 0a d5 37 3e 87 f3 40 3d
       0.09050757 0.1116369 0.17952362 0.047107246
0000b0 d1 40 07 3e 39 fe 06 3e f9 09 9d bd 62 0e d3 bd
       0.13208319 0.13182916 -0.07667918 -0.10305478
0000c0 9f 37 50 3e 85 32 c7 3d 9c cf 06 3e 0d bf 07 3e
       0.20333718 0.09726433 0.13165134 0.13256474
0000d0 d1 40 77 3d 59 7c 72 bd a4 92 44 be 0d 26 b2 3d
       0.060364548 -0.05920062 -0.19196564 0.08698664
0000e0 cc 28 06 be 7c 5f a9 3d db 2f f0 bd a0 43 e5 3c
       -0.131015 0.08270165 -0.11727878 0.027986348
0000f0 b2 87 07 3e ba 0f 5d 3e ab 5e 1d bc 3f 5c 4c be
       0.13235357 0.2158803 -0.00960509 -0.19957064
000100 75 6f c0 bd 67 8f b8 bd c0 6b 33 3e 89 d9 94 bd
       -0.09396259 -0.09011727 0.17521572 -0.07268054
000110 55 78 85 3d d3 58 c5 3d 6b 1a 1e 3e 2c f0 99 39
       0.06517092 0.096360825 0.15439765 0.00029361376
000120 fd 6b 2e 3d b5 73 a3 3d d2 33 ac 3d e0 0d 82 bc
       0.042583454 0.07981054 0.084083214 -0.015875757
000130 0d 0c 15 be 03 bc ee 3d f5 44 90 3e 58 83 15 bd
       -0.14555378 0.11656954 0.2817761 -0.036502212
000140 66 23 ec bc ee f0 f9 bd d6 13 9a 3d e8 78 c4 bc
       -0.028825473 -0.12204157 0.07523315 -0.023983434
000150 c3 93 b3 3d 0b 8c 16 be 73 d1 7d 3d c7 cd 99 bd
       0.08768418 -0.1470186 0.061967324 -0.07509952
000160 15 15 94 bd ec 50 ef bd e0 ea 09 3e a6 7b 80 3d
       -0.072305836 -0.116853565 0.13468504 0.06273584
000170 9d f0 a5 bd f2 c2 08 3e da 29 01 be 41 08 1f bd
       -0.08102534 0.13355616 -0.12613621 -0.03882623
000180 c4 6d e6 3c 6d 45 03 bd 49 d2 7b bd 62 ae de 3c
       0.028128512 -0.03204863 -0.06147984 0.027182762
000190 9a 65 15 be a2 fe 71 bd e9 89 4a be c9 c4 8a bc
       -0.14589539 -0.059080727 -0.19779171 -0.016939538
0001a0 40 de e9 bd 29 25 bd bd 03 55 e4 bd b0 09 27 be
       -0.11419344 -0.09235603 -0.11149027 -0.16312289
0001b0 1f 33 ac bd fc 0d 22 be 54 ab 2e 3e 13 23 01 be
       -0.08408188 -0.15825647 0.17057544 -0.12611036
0001c0 07 ec 8c 3d d5 23 16 3d 20 06 8a 3c 60 fd ed 3d
       0.06880956 0.036655266 0.016848624 0.11620593
0001d0 26 45 29 be 58 86 5d bd 80 7f 39 3c 68 ea b2 3d
       -0.16530284 -0.0540832 0.011321902 0.08736116
0001e0 4f 32 ad bd c1 94 f6 3d ed 0b 1b be f9 c7 27 be
       -0.08456861 0.12040091 -0.15141268 -0.16384877
0001f0 ec 9c e6 bd 09 fd 6b 3d 83 4e 46 3d e9 e6 11 3d
       -0.11260399 0.05761436 0.04841472 0.035620604
000200 e5 65 15 bb c2 f0 54 3d 6b 35 23 be 5f 31 d1 bd
       -0.002279633 0.051987417 -0.15938346 -0.10214495
000210 fe ad 2f be 60 99 ab 3d 59 86 a0 3d 5b 47 c0 3c
       -0.17156217 0.08378863 0.07838125 0.023471525
000220 40 3b 30 bd 9f 4d 0d 3d c4 88 36 3e b7 c8 97 bd
       -0.043025255 0.034497853 0.1782561 -0.0741133
000230 04 15 94 3d 27 62 a7 bd 82 ad a6 3d b5 74 8c 3d
       0.07230571 -0.08173018 0.08138563 0.068581976
000240 72 c7 26 3d b4 23 01 3d f6 5f 12 bd c4 70 03 3e
       0.04071755 0.03152819 -0.035736047 0.12835985
000250 8c 6f 55 3c 02 ae 0c be 0e f7 34 bd dd 14 ab 3c
       0.013027083 -0.13738254 -0.044180922 0.020883972
000260 32 0d 01 be 23 44 96 3d 64 e4 06 3c ca 08 a5 bd
       -0.1260269 0.07337215 0.0082331635 -0.08058317
000270 df bf 39 3d 4d 89 2a 3e 12 44 b3 3d 96 b1 54 3e
       0.045349 0.16653939 0.08753218 0.20770869
000280 36 f9 3e be 7a cf 1a be 0c 7a 9d 3d 40 b8 de bd
       -0.18649754 -0.15118209 0.07689294 -0.10874987
000290 52 60 0f 3e a7 25 eb bd 97 e5 7c bd df 2b 5b 3e
       0.14001587 -0.11481791 -0.06174239 0.21403454
0002a0 31 54 15 be 3a dc 71 bd 6a a0 e4 bd 7d c5 d8 3d
       -0.14582898 -0.059047915 -0.11163409 0.10584543
0002b0 04 17 1c 3e d7 47 21 3e ed 85 49 bd 4c ca c2 bd
       0.15243155 0.15750061 -0.049199987 -0.09511241
0002c0 cc d1 56 3e ca 1b 85 3c 91 43 18 3e de 7f 2c be
       0.20978469 0.016248602 0.14869525 -0.16845652
0002d0 dd 85 08 3e f6 eb 3b 3e 90 7f 33 3d d3 a6 d2 3d
       0.13332315 0.1835173 0.043822825 0.102857254
0002e0 fd 0e 05 be 63 30 7a bd ed 45 39 3e 8d 43 91 3d
       -0.12993999 -0.0610813 0.18093081 0.070929624
0002f0 75 6b 48 be 68 79 8c 3e df 3b 14 bd 85 ee fe bd
       -0.19572242 0.27436376 -0.03618991 -0.12447838
000300 60 e8 29 3e 29 e0 65 ba 00 d3 4d bd fd 6e 2c 3d
       0.1659255 -0.0008769059 -0.050250053 0.042098034
000310 27 88 31 bd 61 15 04 be be 93 55 bd 24 c5 20 bd
       -0.043342736 -0.1289878 -0.05214285 -0.039250508
000320 40 7f 15 bd b3 89 ce 3d 95 92 a3 3d 8d 9b 46 bd
       -0.03649831 0.10084858 0.07986943 -0.04848819
000330 d9 6f 1b be 0e 57 e7 3c 40 a2 d9 bc 80 84 13 3e
       -0.15179385 0.028239753 -0.026566625 0.14406013
000340 40 f1 eb 3d 07 7a 6f 3c 90 ec 46 bd 02 a3 3d 3e
       0.11520624 0.014616496 -0.048565447 0.18519214
000350 48 d2 2c bc eb bf b0 3d b9 e0 4f 3c f9 87 14 3e
       -0.010548182 0.086303554 0.012687855 0.14504994
000360 cb 43 9e 3d af 3f 47 3d 0b 31 87 3d 3e 8e c0 bd
       0.07727774 0.048644718 0.06601151 -0.094021305
000370 d3 bb 06 be 75 27 17 be ba cb a0 bd a5 6d 02 be
       -0.13157587 -0.14761145 -0.07851358 -0.12737139
000380 3d 5d da bc 20 ff c2 bd c9 56 a6 3c 09 fb b0 3d
       -0.026655788 -0.095213175 0.020305054 0.08641631
000390 6f f3 6c 3e 68 7e 0f 3e 9d 88 11 3e d5 df d7 bd
       0.23139738 0.14013064 0.1421227 -0.105407394
0003a0 db db 1a 3c c1 65 92 3c 9b f6 32 3e d1 be 51 be
       0.009451832 0.017870786 0.17476885 -0.20482947
0003b0 fb a7 9d bc fe 74 e5 3d 1b d5 04 3e d1 fa 0d be
       -0.019245138 0.11203955 0.12971918 -0.1386521
0003c0 02 d9 5d be 70 e3 d5 3d 20 47 df 3d 3b 1a 18 be
       -0.21664813 0.10443771 0.10902238 -0.14853756
0003d0 40 41 fa bd cc ae 07 3e 31 fd 5e be 6c 09 e0 bd
       -0.12219477 0.13250273 -0.21776272 -0.10939297
0003e0 46 68 0c 3e 99 84 75 3c ee 12 01 3e ed e2 c3 3d
       0.13711652 0.014985227 0.12604877 0.09564767
0003f0 fc c1 1d be 67 6f 98 bd bb 65 e6 3d 56 b2 0b 3e
       -0.1540603 -0.07443123 0.11249872 0.13642249

dnn/logits/MatMul f4 [1, 64]
000000 26 ec a5 3e 88 3b bd 3e 2b c7 2d 3e ea 74 92 bd
       0.3240673 0.3695948 0.16970508 -0.07151206
000010 1d 66 75 be 8b d2 8d 3e e9 d7 04 be 6c d3 bf 3e
       -0.23964734 0.27699694 -0.12972988 0.3746599
000020 8a 72 88 3e f8 37 81 3d f8 6f 97 3e b7 2b 4e be
       0.26649886 0.06309503 0.29577613 -0.20133863
000030 03 f3 8e 3d 0c 36 7e be 6b 7a 61 3e 4d c7 98 3e
       0.069799446 -0.24825305 0.22019355 0.29839554
000040 41 e0 74 3e 6a 50 a6 3e e3 f7 c9 3e 77 87 76 be
       0.23913671 0.32483226 0.39446935 -0.24075113
000050 cd 75 b7 bd 48 a4 6c 3e a6 ee a2 be 5c ea 92 be
       -0.089580156 0.23109543 -0.318227 -0.28694427
000060 25 4a 8c be ef 29 f0 3d 01 f9 ac bd 8d 88 2c 3e
       -0.27400318 0.11726748 -0.08445931 0.16848965
000070 59 c4 6a 3e e9 58 a6 3e d1 be 27 3e 3a 11 90 be
       0.22926463 0.32489708 0.16381384 -0.28138143
000080 c6 16 50 be 69 5e 42 bd 3a fa 08 3e 10 c0 82 3e
       -0.20321187 -0.047453318 0.13376704 0.25537157
000090 9e cd b2 bd 91 0f f0 bd 89 3e 85 bc c9 93 94 3e
       -0.087306246 -0.11721719 -0.01626517 0.29019
0000a0 33 7e 70 be b2 d3 60 be c3 db 86 3e ab 5e 5d 3e
       -0.23485641 -0.21955755 0.2633954 0.21618144
0000b0 98 7f 9d be ff 74 d4 bd 69 55 92 bd 72 12 a0 3e
       -0.3076141 -0.10373878 -0.07145197 0.31264073
0000c0 68 78 7a 3e 2a 7f 0a 3e a7 f0 30 be 5c b2 d5 3c
       0.24459994 0.13525072 -0.17279302 0.026086025
0000d0 39 39 a4 3e 7d ff 04 be 8b c5 a7 bd ee 2d 3a 3e
       0.32074907 -0.12988086 -0.08191975 0.18181583
0000e0 f3 6a 57 3e 18 32 46 3e a5 92 87 3e 94 96 03 bd
       0.21036892 0.19355047 0.26479068 -0.032126024
0000f0 a9 cb 0f 3e be 3e f4 bc 27 80 9a be 6a 2e d8 3e
       0.14042534 -0.029815074 -0.30175897 0.4222291
