PlanteD_Plant-Disease-Detector/.dart_tool/chrome-device/Default/optimization_guide_prediction_model_downloads/6e7c586f-6601-4740-a876-09f5b40b8940/model.tflite (tflite, 410364 bytes, 166 tensors)

context_transformer_0/bottleneck_input/norm/add f4 [32]
0.07547053 -0.119993314 -0.019280018 0.015499255 0.039653648 -0.067479394 0.019230634 -0.1298263
0.19780166 0.016124671 -0.009388991 -0.056319106 -0.04449307 0.022674143 0.011320114 -0.022927037
0.14573637 0.06219998 0.11656073 -0.03392908 0.019494366 0.014517041 -0.007911027 -0.045060366
-0.06962295 0.0838328 -0.037869174 0.046392404 0.050171852 0.050164737 -0.023969144 -0.2532007
00000000: 4b90 9a3d 0ebf f5bd 21f1 9dbc 96f0 7d3c
00000010: dd6b 223d a332 8abd 9089 9d3c 30f1 04be
00000020: 858c 4a3e e317 843c 48d4 19bc ddae 66bd
00000030: 5e3e 36bd 20bf b93c 0078 393c 7bd1 bbbc
00000040: ea3b 153e 68c5 7e3d 64b7 ee3d 38f9 0abd
00000050: a6b2 9f3c e2d8 6d3c 419d 01bc 3891 38bd
00000060: 7a96 8ebd 88b0 ab3d b51c 1bbd f605 3e3d
00000070: 0081 4d3d 8a79 4d3d f05a c4bc 86a3 81be

context_transformer_1/bottleneck_input/norm/add f4 [32]
-0.14197989 0.011520612 0.0006228748 0.06947624 -0.019718135 -0.03638571 -0.14640866 -0.058722187
0.047831707 -0.1548285 -0.014786669 -0.018023307 0.14236614 0.049618833 -0.041275892 -0.088454746
-0.47659278 0.13449505 0.0074248533 -0.001907439 0.002086319 0.12199078 0.15699336 -0.16290523
0.025090184 -0.017494297 0.08133076 0.07576251 -0.029305967 0.019043684 0.051233158 0.045164213
00000000: 2d63 11be f3c0 3c3c 6c48 233a 8f49 8e3d
00000010: ed87 a1bc 2f09 15bd 27ec 15be ad86 70bd
00000020: 2eeb 433d 5d8b 1ebe c943 72bc 9da5 93bc
00000030: 6ec8 113e 1e3d 4b3d e910 29bd c327 b5bd
00000040: f803 f4be 12b9 093e 2f4c f33b 0803 faba
00000050: a0ba 083b 4dd6 f93d dec2 203e a1d0 26be
00000060: ee89 cd3c 3350 8fbc be90 a63d 6029 9b3d
00000070: 1113 f0bc 8001 9c3c dcd9 513d 1cfe 383d

mention_transformer_0/bottleneck_input/norm/add f4 [32]
-0.12099286 -0.26418155 0.13423583 -0.08744837 -0.046210766 0.13485515 -0.31443805 0.08958465
-0.16925064 0.2407022 -0.07806513 -0.10160678 0.060519926 -0.019430425 0.12982589 -0.031150978
-0.12761292 0.07875682 -0.2597823 -0.16381252 0.08914053 0.088442504 0.03949359 0.09565091
-0.16603935 0.10050239 0.049298085 0.1085189 0.05595414 0.12391965 0.27161205 -0.011439862
00000000: 1bcb f7bd ce42 87be 1e75 093e 2218 b3bd
00000010: 8047 3dbd 7817 0a3e 06fe a0be 2878 b73d
00000020: 0a50 2dbe a37a 763e 9ce0 9fbd 3717 d0bd
00000030: bee3 773d 8e2c 9fbc 14f1 043e 5630 ffbc
00000040: f6ac 02be 414b a13d 3002 85be 78be 27be
00000050: 4f8f b63d 5821 b53d 08c4 213d a0e4 c33d
00000060: 3806 2abe 32d4 cd3d caec 493d 283f de3d
00000070: 2b30 653d 96c9 fd3d bc10 8b3e 426e 3bbc

mention_transformer_1/bottleneck_input/norm/add f4 [32]
-0.0022213012 -0.041187827 0.37012586 0.30407128 -0.090736225 -0.15045589 -0.06774875 0.0849275
0.4143445 0.013985548 -0.07219393 0.13599531 -0.37658226 0.073861286 0.19665036 0.055720937
0.047976986 -0.1299462 0.09868282 0.025449064 -0.06123829 0.35821706 0.11771153 -0.13324174
-0.3317308 -0.078280844 -0.13815856 0.25676513 0.036290277 -0.10047687 -0.14961897 0.07183572
00000000: 4093 11bb 91b4 28bd 2381 bd3e 3baf 9b3e
00000010: ead3 b9bd 1c11 1abe dbbf 8abd 78ee ad3d
00000020: f624 d43e a423 653c 69da 93bd 5b42 0b3e
00000030: 64cf c0be 9644 973d b65e 493e a33b 643d
00000040: 8483 443d 9e10 05be 381a ca3d 8e7a d03c
00000050: 00d5 7abd 3a68 b73e be12 f13d 8670 08be
00000060: 9fd8 a9be b551 a0bd 7079 0dbe b876 833e
00000070: 1da5 143d d1c6 cdbd b735 19be 9b1e 933d

context_transformer_0/attention/value/add;context_transformer_0/attention/value/einsum/Einsum;context_transformer_0/attention/value/add/ReadVariableOp/resource f4 [32]
-0.04240846 -0.0025523065 -0.11516256 -0.058290076 -0.004024523 -0.0068726046 0.0034897276 -0.025743302
0.0028237575 0.010620828 0.03306979 0.03498291 -0.03523987 0.054143254 0.01828208 -0.014206888
-0.051018264 -0.0009729005 -0.009159077 -0.021775382 -0.012018299 0.06445584 -0.003737741 0.0471964
-0.020530388 0.0059208362 -0.06748776 -0.0412034 0.031285547 -0.04354843 0.030233296 -0.05806138
00000000: 7eb4 2dbd 9944 27bb 59da ebbd 93c1 6ebd
00000010: 25e0 83bb 9633 e1bb eab3 643b 9ee3 d2bc
00000020: ca0e 393b fb02 2e3c 3074 073d 3d4a 0f3d
00000030: af57 10bd 51c5 5d3d 4dc4 953c 02c4 68bc
00000040: 87f8 50bd 3f0a 7fba f40f 16bc 4962 b2bc
00000050: 66e8 44bc 6c01 843d e3f4 74bb 0351 413d
00000060: 582f a8bc 9303 c23b 0637 8abd e5c4 28bd
00000070: 4625 003d d75f 32bd d1ab f73c c5d1 6dbd

context_transformer_0/bottleneck_input/norm/mul f4 [32, 32]
-0.56304556 0.18982996 0.04165481 -0.35625395 -0.017167205 0.5600899 0.3336402 -0.441038
-0.70239455 -0.26686302 -0.79754275 -0.35901618 0.23138747 -0.20834547 0.58325785 0.028642712
-0.34379295 -0.390026 -0.17872757 -0.33880973 -0.39896637 -0.65683126 -0.89860815 0.009952028
0.4178625 0.40996358 0.468433 -0.45850763 -0.27049905 0.24424523 -0.14242582 -0.453508
0.2139987 0.37527716 -0.15783703 0.5867863 -0.056824483 0.061364654 0.035950582 0.33133087
-0.3099327 0.042175673 0.6816693 -0.41901758 -0.08171291 0.18190394 -0.34212643 -0.28755277
-0.13553628 -0.18416964 0.22855225 0.07216625 0.38153306 -0.55631727 -0.044858318 0.07843527
0.1129975 -0.06943439 0.16148862 0.33809316 -0.068817325 0.73659885 0.13436086 0.3801942
-0.104910575 0.17266823 -0.3204645 -0.19103308 0.21728657 0.051932916 -0.22881247 -0.026223836
-0.18803066 -0.17683838 -0.014446951 0.027826918 -0.103049636 -0.26777238 0.17048304 0.010848119
0.057374876 0.045833293 -0.13785513 0.093540564 0.033013996 -0.20225392 0.0102474475 0.08666296
-0.14247185 -0.34645024 0.10696682 0.13268737 0.06539266 -0.073522486 -0.08829743 -0.11882697
0.11110817 0.05971197 -0.1931363 -0.021394785 0.17264754 0.11146429 0.021961702 0.3455808
-0.16173403 -0.34450358 0.42809972 0.33518735 0.16105849 -0.20709537 -0.10810659 -0.06064966
0.06990397 0.17896314 0.059000205 -0.0024357038 0.15416873 -0.16950883 0.03605692 0.24567081
0.12982193 0.030820478 0.17164612 -0.1369393 -0.010951917 0.40860775 -0.061480872 -0.13950194
0.10666238 0.097754404 0.23043281 0.0911843 -0.009506415 0.3176659 0.17292358 0.26409292
-0.019651245 -0.16043763 -0.4888999 -0.2199253 0.22366568 0.62819517 -0.22083463 -0.39569145
0.2675467 0.10064816 0.16522077 -0.010219539 -0.114577316 -0.12801135 -0.09748692 0.14417788
-0.3669334 0.21943614 -0.15828548 -0.3640775 0.06313764 -0.49006164 -0.5518176 -0.06400894
0.27304256 0.17588347 0.02618456 0.70959216 -0.123964876 -0.0133069195 -0.04895909 0.098585196
0.3023232 -0.38140732 0.15685368 -0.21795948 -0.27224973 -0.23777331 0.02786029 0.21053427
0.011523449 0.2671674 -0.16219786 -0.31511956 0.3434746 0.16520853 0.29662377 -0.20263416
-0.39651 -0.04064101 0.028254932 0.6107933 0.3602301 0.005599117 -0.065866776 0.15811254
-0.22084977 -0.081553675 0.09921411 0.07090157 -0.0033009476 0.61350465 0.05850013 0.20861343
0.13143113 0.06675239 -0.724244 -0.20503606 -0.04196619 -0.13837887 -0.16776493 -0.09807917
-0.078236885 -0.4156717 -0.08500663 -0.153186 0.13339949 0.15860242 -0.06709605 -0.10929069
-0.043421473 -0.050320454 0.26569214 -0.12575482 -0.39763692 0.08191464 -0.12007957 0.19538063
-0.20242544 -0.26752785 0.37777758 0.26709285 -0.4318303 -0.21880923 0.16606145 -0.37937015
0.45245525 -0.21777815 0.25771704 0.26078698 -0.17493953 0.09372654 -0.17489585 -0.35415667
0.22245428 -0.18839179 0.34225595 0.2431711 0.04130946 0.005068855 0.41045588 0.23399253
-0.33676592 0.006035982 0.017083183 -0.42850736 0.006392723 -0.055082258 -0.06875032 0.86922693
00000000: c123 10bf c962 423e 3c9e 2a3d eb66 b6be
00000010: 3da2 8cbc 0d62 0f3f e3d2 aa3e bccf e1be
00000020: 21d0 33bf 45a2 88be c32b 4cbf f8d0 b7be
00000030: d6f0 6c3e 8458 55be 6350 153f 1fa4 ea3c
00000040: a105 b0be 7db1 c7be 5c04 37be 7878 adbe
00000050: 5245 ccbe 1826 28bf 2f0b 66bf d50d 233c
00000060: 13f2 d53e bfe6 d13e 73d6 ef3e 83c1 eabe
00000070: da7e 8abe 6c1b 7a3e 13d8 11be 3332 e8be
00000080: 7a22 5b3e 5424 c03e 08a0 21be a137 163f
00000090: cac0 68bd 8159 7b3d eb40 133d 33a4 a93e
000000a0: 80af 9ebe 66c0 2c3d e181 2e3f 7989 d6be
000000b0: 1959 a7bd 0745 3a3e 322b afbe 1e3a 93be
000000c0: 06ca 0abe f796 3cbe 9a09 6a3e e6cb 933d
000000d0: 4d58 c33e cf6a 0ebf 5bbd 37bd aca2 a03d
000000e0: 3c6b e73d 9e33 8ebd 465d 253e 8c1a ad3e
000000f0: 19f0 8cbd be91 3c3f e595 093e d0a8 c23e
00000100: 5bdb d6bd f1cf 303e ec13 a4be 2d9e 43be
00000110: 5f80 5e3e 9cb7 543d d14d 6abe 5fd3 d6bc
00000120: 1c8b 40be 1f15 35be e8b2 6cbc 47f5 e33c
00000130: b00b d3bd 7619 89be 1b93 2e3e 4fbc 313c
00000140: eb01 6b3d b1bb 3b3d e529 0dbe 3292 bf3d
00000150: af39 073d a71b 4fbe e9e4 273c 5a7c b13d
00000160: 24e4 11be ed61 b1be 6c11 db3d 33df 073e
00000170: 96ec 853d f592 96bd 48d5 b4bd 8e5b f3bd
00000180: ae8c e33d 8a94 743d 86c5 45be 1e44 afbc
00000190: 84ca 303e 6447 e43d 07e9 b33c f7ef b03e
000001a0: 9b9d 25be c662 b0be e32f db3e ad9d ab3e
000001b0: 84ec 243e cf10 54be fd66 ddbd c76b 78bd
000001c0: d029 8f3d 1d42 373e 33aa 713d 54a0 1fbb
000001d0: 68de 1d3e b993 2dbe 6cb0 133d 2191 7b3e
000001e0: 0af0 043e 3a7b fc3c 00c4 2f3e d139 0cbe
000001f0: ab6f 33bc 0935 d13e 5ed3 7bbd 99d9 0ebe
00000200: ce71 da3d 7633 c83d 94f6 6b3e d6be ba3d
00000210: cbc0 1bbc 1ba5 a23e e112 313e 3037 873e
00000220: a6fb a0bc c349 24be 1651 fabe 1934 61be
00000230: 9e08 653e 66d1 203f 7922 62be 1298 cabe
00000240: e2fb 883e 9f20 ce3d a22f 293e da6f 27bc
00000250: 83a7 eabd 6815 03be 39a7 c7bd 5ea3 133e
00000260: b2de bbbe deb3 603e 9715 22be 5e68 babe
00000270: 4f4e 813d 5ce9 fabe eb43 0dbf 1e17 83bd
00000280: 3ccc 8b3e cc1a 343e 0181 d63c d5a7 353f
00000290: 4ce1 fdbd 4405 5abc 5489 48bd 09e7 c93d
000002a0: 1bca 9a3e d247 c3be 409e 203e c530 5fbe
000002b0: 5164 8bbe d97a 73be 433b e43c 4c96 573e
000002c0: d9cc 3c3c 2aca 883e 3217 26be 5a57 a1be
000002d0: e7db af3e 6d2c 293e 12df 973e 547f 4fbe
000002e0: 5c03 cbbe 3077 26bd e376 e73c f35c 1c3f
000002f0: 1470 b83e cc78 b73b 29e5 86bd 41e8 213e
00000300: 7126 62be 9d05 a7bd c430 cb3d d834 913d
00000310: b654 58bb a40e 1d3f d59d 6f3d c29e 553e
00000320: e295 063e 7ab5 883d 0e68 39bf f9f4 51be
00000330: bde4 2bbd 31b3 0dbe 92ca 2bbe bbdd c8bd
00000340: a93a a0bd ecd2 d4be f517 aebd cadc 1cbe
00000350: e099 083e ac68 223e a769 89bd ccd3 dfbd
00000360: b7da 31bd d21c 4ebd cd08 883e dfc5 00be
00000370: 1197 cbbe ddc2 a73d 47ec f5bd dc11 483e
00000380: 9d48 4fbe 69f9 88be 106c c13e 65c0 883e
00000390: dc18 ddbe 870f 60be 030c 2a3e ce3c c2be
000003a0: 37a8 e73e 3c01 5fbe 7df3 833e df85 853e
000003b0: 5923 33be b3f3 bf3d e617 33be 0654 b5be
000003c0: 0ecb 633e c7e9 40be 2c3c af3e d801 793e
000003d0: 1c34 293d a318 a63b 4627 d23e bd9b 6f3e
000003e0: 956c acbe 7dc9 c53b 08f2 8b3c 5165 dbbe
000003f0: 0c7a d13b ef9d 61bd f8cc 8cbd a885 5e3f

context_transformer_0/kq_shared_bottleneck/norm/mul;context_transformer_0/kq_shared_bottleneck/norm/add;context_transformer_0/attention/key/einsum/Einsum;context_transformer_0/attention/key/add;context_transformer_0/attention/value/einsum/Einsum;context_transformer_0/attention/key/add/ReadVariableOp/resource f4 [32]
0.02892944 -0.012341425 -0.34560576 0.12534782 0.36012682 -0.0017088855 0.16452701 -0.19112127
0.2088069 -0.20853005 -0.10050942 -0.0048143514 0.27420247 -0.0066765146 0.20016527 -0.025158774
-0.12080761 -0.1649939 0.14902405 -0.17956544 0.023333123 0.36823627 0.25278607 -0.031229438
0.33294174 -0.0848077 0.26212224 -0.2131557 -0.23750272 0.19082934 0.061394542 0.11751832
00000000: 6ffd ec3c b033 4abc 3df3 b0be 2e5b 003e
00000010: 8b62 b83e affc dfba c579 283e 4bb5 43be
00000020: 7ad1 553e e788 55be e2d7 cdbd b5c1 9dbb
00000030: 4464 8c3e aac6 dabb 20f8 4c3e c619 cebc
00000040: fb69 f7bd 29f4 28be c399 183e 01e0 37be
00000050: 1b25 bf3c 7789 bc3e 2d6d 813e e1d4 ffbc
00000060: 5777 aa3e a9af adbd e334 863e 7d45 5abe
00000070: ea33 73be c468 433e d878 7b3d 72ad f03d

context_transformer_0/kq_shared_bottleneck/norm/mul;context_transformer_0/kq_shared_bottleneck/norm/add;context_transformer_0/attention/key/einsum/Einsum;context_transformer_0/attention/key/add;context_transformer_0/attention/value/einsum/Einsum;context_transformer_0/attention/key/add/ReadVariableOp/resource1 f4 [32, 32]
-0.09859864 -0.019276302 -0.34347412 0.15328574 -0.15136032 0.16095582 -0.009194183 -0.6907444
-0.28512445 -0.1038825 -0.041458823 -0.3366223 0.16845046 -0.07408025 -0.00945638 0.1821702
-0.09455074 -0.0016099806 0.1970339 -0.38190565 0.07673406 -0.051062394 -0.039324183 -0.038008876
0.26304993 -0.36283445 0.15850084 0.7575261 0.095970795 -0.012672874 0.108152315 0.037992813
-0.32766506 0.026276607 0.03509056 -0.035427526 0.023828415 -0.068616256 0.13124529 -0.4565189
0.36653402 -0.061401676 0.043910276 -0.21101455 -0.24224597 0.7441452 -0.11049409 -0.038091846
-0.08707835 -0.107829325 0.15726417 -0.28080964 0.04683686 -0.057542868 -0.045286063 -0.066059396
-0.005915044 -0.058675688 -0.15207425 0.3001335 0.04465954 -0.057443902 -0.035945628 0.0051020435
0.15628281 0.10313001 -0.21291675 -0.13408074 -0.21959814 -0.17827156 -0.007764305 0.25739038
-0.45809656 0.2534532 -0.24128883 0.22358488 0.2995156 -0.299134 -0.17356735 -0.10630798
0.34012267 -0.033688307 -0.27643406 0.35438895 -0.29703227 -0.20480938 0.002398229 -0.06998763
0.021626702 -0.023362914 0.34330294 -0.103707805 0.09881243 -0.14454737 -0.05211863 0.15576419
-0.032348834 -0.12012896 -0.34262243 0.12728879 0.10709057 0.25092566 -0.1382397 -0.7391291
-0.44247776 -0.044665862 -0.11810511 -0.36769345 0.047769837 -0.30563915 -0.015713634 0.23408441
-0.037091415 0.14689945 0.2848511 -0.33385992 0.039106183 -0.06562165 0.03860316 0.03971323
0.14153112 -0.31144804 0.4347919 0.68643326 -0.1189736 0.14207068 0.20917137 0.010363724
-0.16564296 -0.1566963 0.14992303 0.16725062 0.14966969 0.22240748 -0.042637452 -0.23438878
0.4012702 -0.25766945 0.26736063 -0.23005113 -0.22107135 0.18823597 0.1475184 0.09909418
-0.35374337 0.0530993 0.28403735 -0.38755742 0.27212396 0.21488227 -0.031292528 0.095983006
-0.078133844 -0.054908514 -0.35970342 0.14230001 -0.09903606 0.12915373 0.021477526 -0.16000953
0.10565809 0.13453881 -0.11360917 -0.24191432 0.82941633 -0.20075327 0.11558141 -0.7012144
-0.010023416 0.014535507 -0.16104668 -0.2588768 -0.38630807 -0.40021765 0.04445348 -0.16268301
-0.012095779 0.0032601678 0.47369158 -0.17771123 -0.03252479 -0.08236918 0.24971388 -0.25325638
0.27919465 -0.019818207 -0.14502156 0.0080248965 -0.6450577 0.2528713 -0.21857145 0.26507992
-0.014812621 -0.32371974 0.12778413 0.2893798 -0.6689354 0.30435634 -0.24453096 0.7168199
-0.03373304 0.029040927 0.19584098 0.25520885 0.32718724 0.1436029 -0.014335295 0.21243623
-0.04418217 0.20201574 -0.40427953 0.1893179 0.03781749 0.08855809 -0.18390486 0.38974565
-0.32272437 0.13766202 0.31375945 -0.03432986 0.5128044 -0.16261463 0.30907184 -0.34458363
0.22996446 -0.037518103 -0.21738525 9.597262e-05 -0.19280568 0.014656923 -0.14512107 0.22016259
-0.5782106 0.1926579 -0.23125418 0.17855601 0.3400647 -0.6024542 -0.11199196 0.067675374
0.26996085 0.059610523 -0.22663552 0.3228738 -0.25778443 -0.14405124 -0.036740992 0.006563235
0.10801142 -0.12064699 0.4940124 0.013733225 0.11925173 -0.09395291 0.044055384 0.08391118
00000000: 15ee c9bd 56e9 9dbc d7db afbe f0f6 1c3e
00000010: 33fe 1abe 9ad1 243e 33a3 16bc a0d4 30bf
00000020: d5fb 91be 59c0 d4bd bad0 29bd c259 acbe
00000030: 477e 2c3e 63b7 97bd efee 1abc d38a 3a3e
00000040: d2a3 c1bd fc05 d3ba 41c3 493e 2389 c3be
00000050: bf26 9d3d cd26 51bd 6512 21bd 32af 1bbd
00000060: 7bae 863e 70c5 b9be 0b4e 223e 3bed 413f
00000070: 568c c43d e3a1 4fbc f67e dd3d 5a9e 1b3d
00000080: b7c3 a7be 0a42 d73c 1ebb 0f3d 741c 11bd
00000090: cf33 c33c ae86 8cbd 2a65 063e d8bc e9be
000000a0: 59aa bb3e 5380 7bbd 43db 333d 3314 58be
000000b0: 540f 78be 4d80 3e3f ba4a e2bd 3206 1cbd
000000c0: 2256 b2bd 9fd5 dcbd dc09 213e 48c6 8fbe
000000d0: 02d8 3f3d 12b2 6bbd e17d 39bd 264a 87bd
000000e0: fcd2 c1bb eb55 70bd 5ab9 1bbe 19ab 993e
000000f0: ecec 363d 4c4a 6bbd b93b 13bd 0b2f a73b
00000100: 9a08 203e d435 d33d d906 5abe 764c 09be
00000110: 56de 60be d28c 36be b66b febb acc8 833e
00000120: a28b eabe 9ec4 813e 6b14 77be 6ff3 643e
00000130: 1c5a 993e 1728 99be a4bb 31be 00b8 d9bd
00000140: 8f24 ae3e c0fc 09bd c488 8dbe 7872 b53e
00000150: 9d14 98be 8db9 51be 9b2b 1d3b ad55 8fbd
00000160: 7b2a b13c 9563 bfbc 67c5 af3e c264 d4bd
00000170: 2c5e ca3d 3a04 14be 587a 55bd a680 1f3e
00000180: 3680 04bd 2c06 f6bd 356c afbe fe57 023e
00000190: 4d52 db3d 5479 803e b58e 0dbe 9137 3dbf
000001a0: 728c e2be 8df3 36bd 18e1 f1bd 5142 bcbe
000001b0: 4eaa 433d bc7c 9cbe e1b9 80bc d3b3 6f3e
000001c0: 2bed 17bd cf6c 163e 01d8 913e b0ef aabe
000001d0: ce2d 203d a564 86bd 591e 1e3d 57aa 223d
000001e0: 89ed 103e 1e76 9fbe 0b9d de3e 17ba 2f3f
000001f0: 6ea8 f3bd fa7a 113e 0531 563e 9ccc 293c
00000200: 4f9e 29be ff74 20be 6c85 193e bf43 2b3e
00000210: 0343 193e c9be 633e 9ca4 2ebd 9d03 70be
00000220: 4a73 cd3e 40ed 83be 7ee3 883e 8692 6bbe
00000230: 8760 62be eec0 403e 100f 173e e4f1 ca3d
00000240: da1d b5be a77e 593d 586d 913e ed6d c6be
00000250: d553 8b3e 190a 5c3e 982c 00bd bd92 c43d
00000260: a304 a0bd c0e7 60bd 0c2b b8be 18b7 113e
00000270: 6bd3 cabd e040 043e a3f1 af3c 8ad9 23be
00000280: 4563 d83d 8bc4 093e edab e8bd 63b8 77be
00000290: a154 543f 4492 4dbe f2b5 ec3d c982 33bf
000002a0: 4139 24bc 5626 6e3c 6ce9 24be 808b 84be
000002b0: 2cca c5be 54e9 ccbe da14 363d 6096 26be
000002c0: 602d 46bc 8aa8 553b b487 f23e eff9 35be
000002d0: b738 05bd 2cb1 a8bd ffb4 7f3e d2aa 81be
000002e0: 9af2 8e3e cb59 a2bc 8880 14be db7a 033c
000002f0: 8022 25bf 5978 813e 32d1 5fbe 8eb8 873e
00000300: a3b0 72bc 98be a5be d8d9 023e 9729 943e
00000310: 5a3f 2bbf 98d4 9b3e 5366 7abe 8281 373f
00000320: a82b 0abd 3de7 ed3c 8a8a 483e bcaa 823e
00000330: 1685 a73e a30c 133e 96de 6abc e288 593e
00000340: 5df8 34bd 37dd 4e3e bafd cebe 8ddc 413e
00000350: 83e6 1a3d f25d b53d 8e51 3cbe be8c c73e
00000360: 213c a5be 46f7 0c3e 14a5 a03e 789d 0cbd
00000370: 2647 033f 7384 26be aa3e 9e3e 446d b0be
00000380: ce7b 6b3e 95ac 19bd 3d9a 5ebe e844 c938
00000390: da6e 45be 9723 703c 9e9a 14be 4d72 613e
000003a0: 9c05 14bf 1d48 453e e5cd 6cbe 63d7 363e
000003b0: f61c ae3e 703a 1abf 0a5c e5bd 6399 8a3d
000003c0: 4f38 8a3e 2a2a 743d 2413 68be b74f a53e
000003d0: 52fc 83be 2b82 13be b97d 16bd 6810 d73b
000003e0: 1735 dd3d c515 f7bd 31ef fc3e 5201 613c
000003f0: 403a f43d 626a c0bd 6b73 343d a0d9 ab3d

context_transformer_0/kq_shared_bottleneck/norm/mul;context_transformer_0/kq_shared_bottleneck/norm/add;context_transformer_0/attention/query/einsum/Einsum;context_transformer_0/attention/query/add;context_transformer_0/attention/value/einsum/Einsum;context_transformer_0/attention/query/add/ReadVariableOp/resource;context_transformer_0/attention/Mul;context_transformer_0/attention/Mul/y f4 [32]
-0.042382598 -0.018860469 0.2029652 -0.039524 -0.20748444 0.025337225 -0.062291134 0.14618719
0.088528164 -0.08672817 -0.17913 0.22501788 0.07809018 -0.23582047 0.09706206 -0.22929835
-0.13512073 0.02867758 -0.09323858 0.103070654 -0.17683697 0.029497754 -0.0136040775 -0.015931424
-0.21409668 0.18931171 -0.09271227 0.2055467 0.1862899 -0.1527193 -0.1631334 -0.1753399
00000000: 6099 2dbd 4581 9abc 1cd6 4f3e ebe3 21bd
00000010: cd76 54be 0390 cf3c fd24 7fbd 18b2 153e
00000020: 414e b53d 8a9e b1bd db6d 37be 166b 663e
00000030: bfed 9f3d ec7a 71be 79c8 c63d 30cd 6abe
00000040: 175d 0abe 3fed ea3c def3 bebd b516 d33d
00000050: c014 35be 46a5 f13c a3e3 5ebc 9e82 82bc
00000060: 293c 5bbe eeda 413e eedf bdbd d67a 523e
00000070: c8c2 3e3e 7362 1cbe 710c 27be 4e8c 33be

context_transformer_0/kq_shared_bottleneck/norm/mul;context_transformer_0/kq_shared_bottleneck/norm/add;context_transformer_0/attention/query/einsum/Einsum;context_transformer_0/attention/query/add;context_transformer_0/attention/value/einsum/Einsum;context_transformer_0/attention/query/add/ReadVariableOp/resource;context_transformer_0/attention/Mul;context_transformer_0/attention/Mul/y1 f4 [32, 32]
-0.06382137 0.061934497 -0.06968972 0.03312606 -0.04133186 0.00023526498 0.048017707 -0.12987828
-0.20412067 -0.022484798 -0.019244675 -0.13799661 0.09427054 0.09541011 -0.06533688 0.08814798
0.0029728725 -0.06893589 0.053780135 -0.08806985 -0.010579971 -0.020547315 -0.07041626 -0.06585564
-0.0054294644 -0.3962265 0.05292123 0.2646701 0.03382046 -0.04190134 -0.040757984 0.1940082
-0.14783107 0.043909308 -0.0042206733 0.08114788 -0.060736787 0.00047135833 0.057630695 -0.019423483
0.15620053 -0.00934903 0.01966668 -0.05189736 -0.0588451 0.16852061 -0.055509064 0.11724666
0.00589688 -0.09003391 0.013858168 -0.017884871 -0.018576564 0.028718216 -0.19786946 0.016710404
-0.13078889 -0.2288298 -0.20175724 0.17171332 0.006629872 -0.12803039 -0.11041766 0.10664798
0.091822006 -0.098974794 0.063379444 -0.00028316496 0.059984226 0.04021594 -0.123159364 0.0714217
-0.10706134 -0.031308323 0.03554272 -0.038152102 0.12590796 -0.105278924 0.023614248 0.0013117649
-0.04850763 0.16028719 0.057691798 -0.045088287 0.021966655 0.020376138 0.026637467 0.056188524
0.16709282 0.25836506 0.07521567 -0.0035195784 -0.018739609 0.09045127 0.1639508 -0.15200053
-0.0068821763 0.024393104 -0.0964397 0.08362404 -0.003170893 0.040018387 0.0055921692 -0.08322123
-0.31182733 0.0028585342 -0.056404483 -0.13339518 0.09633828 -0.0066614435 -0.077959195 0.12531845
0.011784466 -0.05834202 0.024530828 -0.054157548 -0.026062837 -0.03309743 0.0066751353 -0.042078108
-0.037745714 -0.5114479 0.07945599 0.21229276 0.017005032 -0.03126242 -0.033948366 0.19914143
-0.10829239 0.10476052 -0.09118447 -0.022470022 -0.045567255 -0.047732223 0.1192161 -0.094576195
0.08395365 0.049180426 -0.038762394 0.019513046 -0.1237893 0.120633446 -0.032522373 -0.003911813
0.03606509 -0.13746406 -0.050634842 0.026750349 -0.026903242 -0.032941815 -0.0065880115 -0.061502244
-0.1658872 -0.25174323 -0.030445756 0.02044296 0.034989983 -0.08134316 -0.15553465 0.15902497
0.13968551 0.00018197432 0.019798303 -0.041202232 0.039197322 0.016326291 -0.08075338 0.0022053313
0.016248541 -0.029431509 -0.0537927 -0.11051786 -0.043670647 -0.08010958 -0.036477033 -0.059511602
0.029993854 -0.041967656 -0.008889976 -0.0003081111 -0.05010017 -0.0008093972 0.112169236 -0.02983729
-0.030961325 -0.5694975 -0.43648702 0.01262187 -0.055988222 0.0064320643 -0.05345219 0.08143992
-0.10809743 0.00042497055 -0.052157935 0.034703366 -0.03545592 -0.004091301 0.0821904 0.03231974
-0.10907336 0.04924393 0.021857308 0.12700763 0.039352305 0.013314658 0.00829165 0.0707773
-0.021242853 0.049879264 -0.029125547 0.021310607 0.027215034 -0.008153885 -0.040226113 0.009684757
0.0019782379 0.52932626 0.5165745 -0.10626937 0.06961322 -0.029716859 0.06748421 -0.093884036
0.11110863 -0.094141 0.020364454 -0.0026855497 0.072118595 0.03847841 -0.10172483 0.03175064
-0.23353967 -0.013891671 -0.0011968004 -0.028756782 0.15534525 -0.14193654 0.022121368 0.0049248193
-0.03689754 0.14790343 0.04012579 -0.018900022 0.003597082 -0.0014982359 0.09273985 0.027381105
0.17972781 0.20575924 0.22974119 0.0004555434 -0.01331222 0.09183289 0.17292146 -0.10741746
00000000: c7b4 82bd 07af 7d3d 7cb9 8ebd 31af 073d
00000010: 994b 29bd 76b1 7639 37ae 443d d0fe 04be
00000020: 0205 51be 0a32 b8bc 02a7 9dbc fc4e 0dbe
00000030: ea10 c13d 6066 c33d 58cf 85bd ee86 b43d
00000040: 86d4 423b 432e 8dbd 8f48 5c3d f75d b4bd
00000050: 9d57 2dbc d852 a8bc 6636 90bd 52df 86bd
00000060: a6e9 b1bb 33de cabe efc3 583d d782 873e
00000070: 5387 0a3d bda0 2bbd d8f1 26bd 16aa 463e
00000080: 0761 17be 3fda 333d 934d 8abb dc30 a63d
00000090: 23c7 78bd a520 f739 2a0e 6c3d ff1d 9fbc
000000a0: 08f3 1f3e ad2c 19bc 041c a13c 5392 54bd
000000b0: 8f07 71bd ab90 2c3e 795d 63bd 041f f03d
000000c0: 9d3a c13b b363 b8bd 5f0d 633c 4b83 92bc
000000d0: e12d 98bc 7742 eb3c 4b9e 4abe 42e4 883c
000000e0: 86ed 05be 5c52 6abe 7399 4ebe 9ed5 2f3e
000000f0: 663f d93b 661a 03be a722 e2bd 426a da3d
00000100: 2d0d bc3d 4cb3 cabd 15cd 813d c275 94b9
00000110: 05b2 753d 78b9 243d fa3a fcbd 8a45 923d
00000120: fa42 dbbd 283d 00bd 3e95 113d 6145 1cbd
00000130: 04ee 003e 7a9c d7bd ab72 c13c 87ef ab3a
00000140: f0af 46bd 5322 243e 3c4e 6c3d 7fae 38bd
00000150: 6af3 b33c dceb a63c d136 da3c f025 663d
00000160: 611a 2b3e 6d48 843e ac0a 9a3d baa8 66bb
00000170: cf83 99bc 843e b93d b8e2 273e 07a6 1bbe
00000180: e183 e1bb 0cd4 c73c 2d82 c5bd 1543 ab3d
00000190: c2ce 4fbb 52ea 233d 843e b73b e46f aabd
000001a0: d5a7 9fbe 3f56 3b3b 6308 67bd bf98 08be
000001b0: 014d c53d 3d48 dabb 12a9 9fbd 7b53 003e
000001c0: a213 413c 0bf8 6ebd e0f4 c83c 4ed4 5dbd
000001d0: bb81 d5bc 2c91 07bd 18bb da3b 185a 2cbd
000001e0: 409b 1abd 40ee 02bf d2b9 a23d 4663 593e
000001f0: 234e 8b3c 060d 00bd 710d 0bbd bbeb 4b3e
00000200: 67c8 ddbd af8c d63d ecbe babd 0d13 b8bc
00000210: bba4 3abd dd82 43bd 9227 f43d 2ab1 c1bd
00000220: e4ef ab3d 6a71 493d 51c5 1ebd d3d9 9f3c
00000230: 3f85 fdbd ab0e f73d 2e36 05bd aa2e 80bb
00000240: fdb8 133d 61c3 0cbe 7b66 4fbd 8c23 db3c
00000250: 3064 dcbc ffed 06bd 3fe0 d7bb c7e9 7bbd
00000260: 56de 29be 7de4 80be 6169 f9bc ff77 a73c
00000270: a851 0f3d 3e97 a6bd 7a44 1fbe 71d7 223e
00000280: b809 0f3e 5cd0 3e39 0d30 a23c acc3 28bd
00000290: 5f8d 203d b7be 853c 0762 a5bd 5287 103b
000002a0: a91b 853c 591a f1bc bc55 5cbd 3057 e2bd
000002b0: fedf 32bd 7e10 a4bd f168 15bd 70c2 73bd
000002c0: acb5 f53c 47e6 2bbd 43a7 11bc f989 a1b9
000002d0: d635 4dbd ba2d 54ba fcb8 e53d 556d f4bc
000002e0: 9ba2 fdbc 97ca 11bf 3a7b dfbe f6cb 4e3c
000002f0: e853 65bd 11c4 d23b aff0 5abd f9c9 a63d
00000300: 2f62 ddbd 95ce de39 8fa3 55bd 1e25 0e3d
00000310: 3a3a 11bd 5210 86bb 7153 a83d b461 043d
00000320: db61 dfbd 01b4 493d 190e b33c 4a0e 023e
00000330: e22f 213d b925 5a3c b3d9 073c b0f3 903d
00000340: 7e05 aebc 334e 4c3d b398 eebc 9593 ae3c
00000350: 10f2 de3c df97 05bc 23c4 24bd d1ac 1e3c
00000360: 53a5 013b ed81 073f 3a3e 043f c1a3 d9bd
00000370: 6091 8e3d c570 f3bc 2935 8a3d 4646 c0bd
00000380: ec8c e33d ffcc c0bd 5bd3 a63c 0c00 30bb
00000390: eab2 933d 8a9b 1d3d 1c55 d0bd f60c 023d
000003a0: 0625 6fbe e499 63bc f5dd 9cba 5893 ebbc
000003b0: d312 1f3e d057 11be df37 b53c 6160 a13b
000003c0: e021 17bd ff73 173e f15a 243d 38d4 9abc
000003d0: 06bd 6b3b 7460 c4ba 64ee bd3d 574e e03c
000003e0: 910a 383e 8db2 523e 4641 6b3e 00d6 ee39
000003f0: 7f1b 5abc e212 bc3d 5312 313e affd dbbd

context_transformer_0/ffn_layer_0/intermediate_dense/einsum/Einsum;context_transformer_0/ffn_layer_0/intermediate_dense/Relu;context_transformer_0/ffn_layer_0/intermediate_dense/add f4 [32]
-0.14558236 -0.07794887 -0.36521566 -0.26383892 -0.16101271 -0.137599 -0.11111192 -0.27848774
-0.122986615 -0.41875878 -0.29085103 -0.46677577 -0.3179954 -0.24282794 -0.15693395 -0.39070904
-0.1956947 -0.33053654 -0.15032624 -0.43303433 -0.5092358 -0.23772773 -0.24224311 -0.21648663
-0.15404683 -0.2447948 -0.27623883 -0.37422767 -0.1536612 -0.20074126 -0.33462512 -0.52659005
00000000: 8b13 15be a8a3 9fbd 8cfd babe e515 87be
00000010: 84e0 24be c1e6 0cbe a58e e3bd f295 8ebe
00000020: 68e0 fbbd 8d67 d6be 6dea 94be 3cfd eebe
00000030: 4bd0 a2be e3a7 78be 4bb3 20be 040b c8be
00000040: 3164 48be 163c a9be 1fef 19be adb6 ddbe
00000050: 475d 02bf e66e 73be 940e 78be acae 5dbe
00000060: 74be 1dbe 7dab 7abe 2d6f 8dbe c59a bfbe
00000070: 5d59 1dbe 1e8f 4dbe fc53 abbe 9bce 06bf

context_transformer_0/attention/norm/mul;context_transformer_0/attention/norm/add;context_transformer_0/ffn_layer_0/intermediate_dense/einsum/Einsum;context_transformer_0/ffn_layer_0/intermediate_dense/Relu;context_transformer_0/ffn_layer_0/intermediate_dense/add f4 [32, 32]
-0.20119125 0.31177327 -0.061788343 -0.09873188 0.14670314 0.19589333 0.1463006 0.11512957
0.13800755 -0.29712182 0.12454028 0.07757813 -0.15048414 0.21237768 -0.02949184 0.188768
0.042998377 0.20491919 -0.37270564 -0.013136441 -0.019350111 -0.03939576 0.15003337 0.07949909
0.28791952 -0.25460672 0.17328086 0.2609348 0.079722464 -0.08754988 0.20699833 0.289407
-0.13560025 0.23501852 -0.038806297 -0.5028291 -0.09525271 0.1036877 -0.059975408 0.22513153
0.25043884 -0.027014326 0.14906174 -0.1672057 -0.016336143 0.0072094942 0.39605904 -0.41790253
-0.2646878 -0.27364683 -0.2227072 -0.33220583 -0.3020434 -0.016809024 0.2736931 0.013771132
0.089061394 0.107426696 0.038732424 0.24592626 -0.06634674 -0.012465433 0.06702639 -0.0815874
0.13901713 -0.13607463 -0.24981132 0.13149694 0.08958748 -0.18328436 -0.027568294 -0.052087553
-0.18654858 -0.21204276 0.21045572 0.09755223 -0.04192503 -0.059765268 -0.13343039 0.015265078
0.041031927 0.18211745 -0.41753358 -0.2891762 0.03940513 -0.31822398 0.119031765 0.36864236
0.032682326 -0.09066144 -0.5010043 0.09043049 -0.27228856 -0.42961523 0.12308133 0.30615994
-0.22291605 0.13765587 0.1566429 0.15359206 -0.2856192 -0.18309805 -0.0016439166 0.045417078
-0.014300509 0.21251094 -0.3299367 0.0906843 0.090971746 -0.26615316 -0.13796654 -0.12319548
-0.18111931 0.04588698 0.15877753 0.026109947 -0.03201087 0.15137714 -0.19380589 -0.12949376
-0.18389921 -0.092988804 -0.033884015 -0.2567501 -0.1370044 -0.35230187 -0.019898014 0.18042085
-0.08613808 0.112820424 -0.03337351 0.063776255 -0.17879641 0.117927566 -0.2193061 0.029074054
-0.28241047 0.05282463 0.24456267 0.05818492 0.1420608 -0.122778825 -0.17620055 0.279598
0.06080299 0.04394446 -0.29811817 -0.4010105 0.07529651 -0.04006383 0.23820698 -0.03255138
0.27153367 0.077949986 -0.485367 -0.21783261 -0.35503167 0.5591557 0.15869354 0.15252835
-0.09674607 -0.15408596 -0.09528201 -0.18370728 -0.20295215 0.21845263 -0.13143586 0.060023237
-0.06961422 0.1376955 -0.5386745 -0.104159854 -0.1049454 0.07065958 -0.23527415 0.09588886
-0.27661133 0.029484319 0.03224607 0.17158346 -0.31885895 -0.14601399 0.280802 -0.15080245
-0.14082994 0.2886968 0.0885313 0.03863941 0.11353142 0.13746198 -0.01636737 0.6809737
-0.19607452 -0.09522582 -0.16344862 0.03311698 0.13383524 0.24963956 0.13358448 -0.13696566
-0.169836 -0.16120566 -0.012135904 -0.2293676 -0.1874159 0.22304066 0.15653643 0.015793392
0.16916433 0.1717668 0.004519747 0.1417198 -0.072004944 -0.09717422 0.028372066 -0.10684802
0.030940965 0.11163754 0.07417318 0.08906748 -0.217006 -0.47715136 0.42686605 0.11918073
-0.15199558 -0.028868144 -0.19262865 0.18156976 0.18259212 -0.17456824 -0.03055255 0.078563474
-0.0030039789 0.20163538 -0.16553277 0.20625548 0.2764163 -0.00647429 0.06599487 0.0700231
-0.052698363 0.1487805 0.13129176 -0.11667561 -0.15985675 0.20261271 -0.25993586 -0.28355277
-0.032989446 -0.36279616 -0.14990172 -0.24045378 -0.06343187 -0.26322487 0.11200461 0.67977965
00000000: 1405 4ebe bfa0 9f3e c615 7dbd f133 cabd
00000010: 5939 163e 4398 483e d3cf 153e 0dc9 eb3d
00000020: da51 0d3e 5a20 98be f90e ff3d 48e1 9e3d
00000030: 8418 1abe 8979 593e df98 f1bc 664c 413e
00000040: 111f 303d 56d6 513e 46d3 bebe 3a3a 57bc
00000050: 2084 9ebc 735d 21bd 59a2 193e 6bd0 a23d
00000060: 306a 933e d05b 82be 8a70 313e 3f99 853e
00000070: 8845 a33d 5a4d b3bd 5ff7 533e 282d 943e
00000080: cbda 0abe b2a8 703e 5af3 1ebd 68b9 00bf
00000090: da13 c3bd 385a d43d c6a8 75bd e188 663e
000000a0: 8539 803e 264d ddbc a4a3 183e f937 2bbe
000000b0: 60d3 85bc 9f3d ec3b 40c8 ca3e 52f7 d5be
000000c0: 2985 87be 701b 8cbe 5b0d 64be e216 aabe
000000d0: 6fa5 9abe 14b3 89bc 8121 8c3e 50a0 613c
000000e0: d265 b63d 8702 dc3d e4a5 1e3d 18d4 7b3e
000000f0: cde0 87bd d13b 4cbc 2245 893d 4b17 a7bd
00000100: 825a 0e3e 2657 0bbe 8ace 7fbe 22a7 063e
00000110: a479 b73d e5ae 3bbe e7d6 e1bc c259 55bd
00000120: 9706 3fbe bd21 59be b481 573e 77c9 c73d
00000130: 95b9 2bbd 6dcc 74bd faa1 08be 611a 7a3c
00000140: 1811 283d ff7c 3a3e f6c6 d5be e70e 94be
00000150: 4667 213d 41ee a2be edc6 f33d b1be bc3e
00000160: e7dd 053d b4ac b9bd d141 00bf 9f33 b93d
00000170: 6869 8bbe 87f6 dbbe 1012 fc3d ffc0 9c3e
00000180: 1b44 64be a9f5 0c3e ff66 203e 3d47 1d3e
00000190: ae3c 92be 0e7e 3bbe b078 d7ba 4207 3a3d
000001a0: af4c 6abc 789c 593e 77ed a8be b1b8 b93d
000001b0: 654f ba3d 3a45 88be 1a47 0dbe e94d fcbd
000001c0: 5777 39be fcf3 3b3d 9496 223e 87e4 d53c
000001d0: d41d 03bd 9c02 1b3e 0d75 46be 039a 04be
000001e0: 1350 3cbe ea70 bebd f7c9 0abd c074 83be
000001f0: e24a 0cbe e960 b4be 2901 a3bc 3ec0 383e
00000200: 2969 b0bd 650e e73d a9b2 08bd 209d 823d
00000210: 6816 37be 0284 f13d c791 60be b62c ee3c
00000220: 1b98 90be a45e 583d a36e 7a3e 5053 6e3d
00000230: 6378 113e 7773 fbbd eb6d 34be 7827 8f3e
00000240: 8e0c 793d 1bff 333d f2a2 98be 4051 cdbe
00000250: 0e35 9a3d f819 24bd 88ec 733e 9954 05bd
00000260: 7606 8b3e 3ea4 9f3d 0682 f8be 830f 5fbe
00000270: b6c6 b5be d424 0f3f 8f80 223e 6430 1c3e
00000280: ce22 c6bd b6c8 1dbe 3723 c3bd c31d 3cbe
00000290: b0d2 4fbe 0cb2 5f3e 1f97 06be edda 753d
000002a0: e691 8ebd 0d00 0d3e 92e6 09bf c351 d5bd
000002b0: 9ded d6bd f8b5 903d b5eb 70be 6161 c43d
000002c0: 00a0 8dbe 1989 f13c 7514 043d 93b3 2f3e
000002d0: 7b41 a3be b184 15be 48c5 8f3e f56b 1abe
000002e0: b935 10be 11d0 933e e64f b53d 5c44 1e3d
000002f0: 2983 e83d d5c2 0c3e dd14 86bc 4b54 2e3f
00000300: c2c7 48be c105 c3bd 135f 27be aca5 073d
00000310: 1b0c 093e 83a1 7f3e 5fca 083e ba40 0cbe
00000320: 7de9 2dbe 1913 25be acd5 46bc 57df 6abe
00000330: f4e9 3fbe c564 643e 164b 203e 2561 813c
00000340: 6a39 2d3e a3e3 2f3e 631a 943b ff1e 113e
00000350: 5477 93bd 4703 c7bd 896c e83c 22d3 dabd
00000360: e877 fd3c 39a2 e43d 1ce8 973d 0369 b63d
00000370: d236 5ebe 2f4d f4be 308e da3e 0715 f43d
00000380: bba4 1bbe e37c ecbc 7240 45be 6ced 393e
00000390: 6ef9 3a3e 04c2 32be 5749 fabc e3e5 a03d
000003a0: 67de 44bb 8179 4e3e 6c81 29be a334 533e
000003b0: 7086 8d3e 4826 d4bb 5228 873d 4568 8f3d
000003c0: 3dda 57bd ea59 183e 5971 063e 9ff3 eebd
000003d0: 7db1 23be b579 4f3e 5016 85be d42d 91be
000003e0: f11f 07bd 6bc0 b9be d67f 19be 8439 76be
000003f0: 91e8 81bd 69c5 86be ac62 e53d 0a06 2e3f

context_transformer_0/ffn_layer_1/intermediate_dense/einsum/Einsum;context_transformer_0/ffn_layer_1/intermediate_dense/Relu;context_transformer_0/ffn_layer_1/intermediate_dense/add f4 [32]
-0.31912816 -0.121775724 -0.005101103 -0.2816871 -0.4694152 -0.33017203 -0.15073559 -0.39489448
-0.06940273 -0.12824626 -0.27650854 -0.224661 -0.2699888 -0.078987345 -0.17428018 -0.05071973
-0.28780863 -0.19018738 -0.16312589 -0.3686695 0.007007618 -0.049997076 -0.27054313 -0.06905903
-0.17470329 -0.24025989 -0.20973103 -0.38213488 -0.34816232 -0.22262503 -0.13318025 -0.31852353
00000000: c464 a3be 8d65 f9bd 2727 a7bb 4b39 90be
00000010: 3057 f0be 4f0c a9be 6e5a 1abe 9c2f cabe
00000020: 0523 8ebd fd52 03be 8792 8dbe 880d 66be
00000030: f93b 8abe 1ec4 a1bd 8176 32be 7ebf 4fbd
00000040: a75b 93be 7bc0 42be 790a 27be 40c2 bcbe
00000050: 29a0 e53b bcc9 4cbd a184 8abe d26e 8dbd
00000060: 6be5 32be b006 76be bbc3 56be 2fa7 c3be
00000070: 5542 b2be d1f7 63be 6760 08be 8415 a3be

context_transformer_0/ffn_layer_0/norm/mul;context_transformer_0/ffn_layer_0/norm/add;context_transformer_0/ffn_layer_1/intermediate_dense/einsum/Einsum;context_transformer_0/ffn_layer_1/intermediate_dense/Relu;context_transformer_0/ffn_layer_1/intermediate_dense/add f4 [32, 32]
0.19201757 -0.3404656 -0.046461087 0.25958973 -0.17062394 0.08008317 0.13517606 0.028599871
-0.4139428 0.113794334 0.31697243 0.12647416 0.21453895 0.0027258666 -0.13594754 -0.081558436
-0.1011639 -0.1411611 0.14928293 0.27440333 0.020188108 -0.26938605 -0.07433608 -0.17998414
0.20472433 -0.34329775 -0.15288936 -0.19113137 -0.11365749 -0.109652564 -0.12123585 -0.00064770767
-0.35747126 -0.2037667 -0.20012072 -0.18765253 -0.5566406 0.39296144 -0.061448723 0.1457119
-0.068897754 -0.24949881 -0.1051945 0.06767175 0.033262517 0.016162056 0.14416294 -0.0125490995
-0.107243285 -0.15636478 -0.26695707 0.23758933 0.028016124 0.27555436 0.2688653 0.3879252
-0.10258427 0.056274593 0.008777246 -0.13762073 -0.08590458 0.13962153 -0.027112132 -0.07245645
-0.014402805 0.039841976 0.03506117 -0.2922011 -0.13024867 -0.08236553 -0.30775627 0.021465512
0.06405019 0.024321271 0.14337859 -0.13768114 -0.45369843 0.028714832 0.10494653 -0.17074558
-0.19597074 -0.15129259 -0.21078469 -0.09898779 -0.106263675 0.060792144 0.15624969 -0.32766205
0.30763075 0.13643298 0.2709723 0.0066261897 0.105743766 0.02704707 -0.26927853 0.10840526
0.08516502 -0.106747575 -0.14471352 -0.03170465 -0.1051714 -0.15339464 0.06908368 0.019652419
0.0043616304 0.19005157 0.010217653 0.17164466 0.11762758 0.14433967 -0.117998175 -0.25143605
-0.11811748 -0.017362438 0.004071012 0.14218935 -0.23101985 0.3271663 -0.011923192 0.41089997
-0.1358578 0.22375704 0.2631255 0.16457796 -0.17654197 -0.102157444 -0.009552518 0.37019366
-0.22382118 0.080523096 -0.02823099 -0.07241792 -0.05705809 0.05159448 0.011488613 -0.028586632
-0.157377 -0.09513645 -0.2563119 0.103501044 -0.14768825 0.24812338 -0.0016116224 0.070346065
-0.18103926 -0.11432898 0.1948832 0.305323 -0.29451525 -0.0070919944 0.0017077094 -0.08731719
-0.24351786 0.31797776 -0.050608613 -0.0031460805 0.032426316 0.1172318 0.18913221 0.22392096
-0.2863025 0.15728965 0.23708613 0.00629582 -0.013052179 -0.070375696 0.2243716 -0.10018731
-0.15431862 -0.12556247 0.062296435 -0.049804363 0.17214401 -0.15956408 -0.087802574 -0.1261766
-0.18888631 0.010258272 0.1387546 -0.1516858 0.14498948 0.20647995 -0.18088378 0.18310784
0.2733628 -0.20783912 -0.2499291 -0.2596385 -0.21467933 -0.006337674 -0.005209726 -0.08098319
0.15366924 0.12276611 0.11098529 -0.10435164 0.15071765 0.32475024 0.33194715 0.06029225
-0.0026355656 0.17317854 0.13054235 -0.33432668 0.17591605 0.157551 0.04860338 -0.05408079
-0.13618447 0.118845776 -0.37441322 0.108236626 -0.003724804 -0.37838382 0.016446868 -0.11767289
0.18794507 -0.3717617 -0.029314065 -0.21413602 0.016223816 0.12338217 0.16237965 0.17748249
-0.2506498 -0.08316344 0.043881137 -0.062290426 0.062333778 0.15302041 -0.068769075 0.0619014
-0.50508296 -0.12419586 -0.11241961 0.10831024 0.11011675 0.015689334 -0.15259127 0.158138
-0.033994906 0.24257308 0.040384866 0.30094722 -0.027630009 0.00048303235 0.34348974 0.2055922
-0.049254224 0.0447846 0.081403404 -0.07006967 0.18071823 -0.05758808 -0.0075607565 0.32417223
00000000: 41a0 443e 8251 aebe fb4d 3ebd f2e8 843e
00000010: 0bb8 2ebe a502 a43d 986b 0a3e 474a ea3c
00000020: 50f0 d3be 010d e93d 364a a23e 7182 013e
00000030: 19b0 5b3e 74a4 323b d535 0bbe 1c08 a7bd
00000040: 052f cfbd 898c 10be a0dd 183e 987e 8c3e
00000050: 8861 a53c f8ec 89be 843d 98bd c34d 38be
00000060: 41a3 513e b9c4 afbe 078f 1cbe f1b7 43be
00000070: 42c5 e8bd 8691 e0bd 804a f8bd edca 29ba
00000080: 7906 b7be 38a8 50be 72ec 4cbe fc27 40be
00000090: 0080 0ebf 3e32 c93e a8b1 7bbd 8035 153e
000000a0: 441a 8dbd 9e7c 7fbe 3770 d7bd 7d97 8a3d
000000b0: 473e 083d 4a66 843c 739f 133e bd9a 4dbc
000000c0: 5ea2 dbbd 171e 20be 99ae 88be 9e4a 733e
000000d0: 1282 e53c 7615 8d3e b6a8 893e 229e c63e
000000e0: b417 d2bd 3080 663d 70ce 0f3c 73ec 0cbe
000000f0: beee afbd f2f8 0e3e 431a debc 0c64 94bd
00000100: bef9 6bbc 5731 233d 4d9c 0f3d 629b 95be
00000110: e85f 05be 42af a8bd 3b92 9dbe 71d8 af3c
00000120: bf2c 833d 673d c73c d6d1 123e 49fc 0cbe
00000130: 294b e8be 5e3b eb3c 35ee d63d eed7 2ebe
00000140: 8eac 48be 72ec 1abe f1d7 57be 1cba cabd
00000150: c5a0 d9bd 2f01 793d ebff 1f3e 52c3 a7be
00000160: c781 9d3e 16b5 0b3e e2bc 8a3e 8220 d93b
00000170: 3090 d83d d191 dd3c e0de 89be 9403 de3d
00000180: ff6a ae3d 799e dabd c82f 14be bcdc 01bd
00000190: 1a64 d7bd 7c13 1dbe bf7b 8d3d 1cfe a03c
000001a0: 02ec 8e3b e19c 423e f167 273c 9ec3 2f3e
000001b0: bbe6 f03d c7cd 133e 07a9 f1bd 3abc 80be
000001c0: 94e7 f1bd ac3b 8ebc 2066 853b 169a 113e
000001d0: 7890 6cbe 5782 a73e 7e59 43bc 7b61 d23e
000001e0: 4f1e 0bbe 9120 653e 63b8 863e 2087 283e
000001f0: 6bc7 34be ec37 d1bd 2a82 1cbc 068a bd3e
00000200: 6131 65be 4be9 a43d ad44 e7bc d94f 94bd
00000210: beb5 69bd bc54 533d bc3a 3c3c 832e eabc
00000220: 7027 21be e6d6 c2bd 503b 83be 5bf8 d33d
00000230: 973b 17be 0e14 7e3e 133d d3ba 9911 903d
00000240: 5b62 39be 5025 eabd 768f 473e 4c53 9c3e
00000250: b4ca 96be f663 e8bb 38d5 df3a 5bd3 b2bd
00000260: bf5c 79be fbcd a23e fa4a 4fbd 792e 4ebb
00000270: 75d1 043d 3a17 f03d e0ab 413e 894b 653e
00000280: 3e96 92be 8a10 213e b5c6 723e 2b4d ce3b
00000290: ced8 55bc 2221 90bd abc1 653e 012f cdbd
000002a0: b305 1ebe 7393 00be 8c2a 7f3d a9ff 4bbd
000002b0: 8546 303e c464 23be d6d1 b3bd 7034 01be
000002c0: 6a6b 41be 5012 283c b015 0e3e 8653 1bbe
000002d0: 1f78 143e 7b6f 533e 9939 39be 9f80 3b3e
000002e0: 35f6 8b3e c7d3 54be 6aed 7fbe 56ef 84be
000002f0: e6d4 5bbe 43ac cfbb 59b6 aabb 84da a5bd
00000300: 785b 1d3e cc6c fb3d 414c e33d 50b6 d5bd
00000310: ba55 1a3e aa45 a63e faf4 a93e 02f5 763d
00000320: 74b9 2cbb b755 313e e5ac 053e de2c abbe
00000330: 5623 343e 0d55 213e 5614 473d d283 5dbd
00000340: f173 0bbe 6a65 f33d 17b3 bfbe 2aab dd3d
00000350: d71b 74bb 86bb c1be 95bb 863c 7cfe f0bd
00000360: ac74 403e 8d57 bebe 0d24 f0bc 7946 5bbe
00000370: cfe7 843c cbaf fc3d da46 263e f8bd 353e
00000380: 2c55 80be 9851 aabd b5bc 333d 3f24 7fbd
00000390: b451 7f3d 62b1 1c3e cdd6 8cbd 538c 7d3d
000003a0: 1e4d 01bf 665a febd 413c e6bd c2d1 dd3d
000003b0: e484 e13d eb86 803c e340 1cbe eeee 213e
000003c0: 3e3e 0bbd 1465 783e 9a6a 253d c115 9a3e
000003d0: 5458 e2bc 813f fd39 e3dd af3e c386 523e
000003e0: ccbe 49bd 0f70 373d d4b6 a63d b080 8fbd
000003f0: 330e 393e 7be1 6bbd 39c0 f7bb e7f9 a53e

context_transformer_0/ffn_layer_2/intermediate_dense/einsum/Einsum;context_transformer_0/ffn_layer_2/intermediate_dense/Relu;context_transformer_0/ffn_layer_2/intermediate_dense/add f4 [32]
-0.27506283 -0.2778413 0.1469358 -0.36176983 -0.01607093 -0.17010215 -0.16134788 -0.01685329
-0.022825373 -0.26297435 -0.017116057 -0.35238516 -0.21206251 -0.033903956 -0.18858653 -0.41792306
-0.37035742 -0.18251523 -0.31358203 -0.12083432 -0.09553417 -0.15307796 -0.25099406 -0.2418127
-0.17737792 0.009031178 -0.0565546 -0.078816995 -0.026670536 -0.26865238 -0.1608784 0.0100057535
00000000: 09d5 8cbe 3741 8ebe 5776 163e e539 b9be
00000010: 2fa7 83bc 422f 2ebe 6138 25be e90f 8abc
00000020: 47fc babc 93a4 86be f936 8cbc d46b b4be
00000030: ea26 59be e0de 0abd d41c 41be 03fa d5be
00000040: 7d9f bdbe 46e5 3abe d38d a0be fc77 f7bd
00000050: 6ba7 c3bd 78c0 1cbe 4b82 80be c09d 77be
00000060: 8fa2 35be 82f7 133c cca5 67bd ce6a a1bd
00000070: 2b7c dabc ce8c 89be 4fbd 24be 2cef 233c

context_transformer_0/ffn_layer_1/norm/mul;context_transformer_0/ffn_layer_1/norm/add;context_transformer_0/ffn_layer_2/intermediate_dense/einsum/Einsum;context_transformer_0/ffn_layer_2/intermediate_dense/Relu;context_transformer_0/ffn_layer_2/intermediate_dense/add f4 [32, 32]
0.049544472 0.008573829 -0.14192124 0.22191145 0.15623803 0.0027660376 -0.08064107 0.00037597868
-0.15998445 -0.08761885 0.15051985 0.11035447 -0.1176608 -0.047106598 -0.18454544 0.07258662
-0.49101904 0.17710604 -0.2859605 0.139977 0.025291927 -0.24925098 0.17973448 -0.042916223
-0.039834093 0.17576154 -0.22962023 0.0022292505 -0.23642476 0.23669536 0.41026574 0.37057638
0.0858115 -0.17553398 -0.087099046 0.38362592 -0.15242192 0.10204717 0.15256613 -0.00035618845
-0.3935324 0.25458902 0.01657878 0.12483849 0.26523432 -0.03542808 0.17643842 -0.15223664
-0.07615586 0.046276413 0.15694295 0.21072078 0.025529077 -0.022443036 -0.19887398 -0.27899435
-0.13775067 -0.16392244 -0.17383967 -0.17290784 -0.085376784 -0.1435103 0.06629413 0.07598875
-0.2133259 -0.104124896 -0.19539429 -0.07438671 0.055078194 0.11163952 0.023107132 0.33168724
-0.015418722 -0.06733708 0.12879826 -0.1166073 -0.09066008 0.1713359 -0.083984524 0.0030715615
0.24779622 0.22102335 -0.054942127 0.16887845 -0.14940143 -0.12614056 0.1451305 -0.100275
0.007880041 -0.084233806 0.07603098 0.053948693 0.25158393 0.21126844 -0.23397806 0.2815544
-0.049567737 -0.01635614 0.072127245 -0.13572973 0.16123493 0.068314224 0.18831629 0.106476255
0.040759064 0.2701884 0.08787749 -0.02618904 0.16411473 -0.23076442 0.07784075 -0.10692521
0.13112545 0.06676361 0.05440183 0.21210365 -0.10796316 0.105562694 0.033579536 0.24348848
-0.2538649 -0.14868402 0.09052007 0.23928674 -0.15784013 -0.0049170996 -0.14393535 0.14701702
-0.01523766 -0.18984358 -0.06186801 0.06982841 0.2237251 0.31548148 -0.0077899275 0.031094013
-0.33517313 -0.08474435 -0.1684281 0.14025937 0.16386837 0.15312123 -0.15539302 0.27488902
0.121986374 0.29554445 0.22851317 0.46215737 0.05518667 0.017567717 0.038184587 -0.0134034725
-0.12780519 -0.19917972 -0.13232657 -0.101913236 0.2188126 -0.10381656 0.15554522 0.1155502
-0.07370055 0.31832504 -0.12566803 0.024369635 -0.053013843 0.12678121 0.1443589 0.09950447
0.031624883 0.16973245 0.35191444 0.20277573 0.0155156385 0.20025286 0.06159922 0.0031565854
0.17482723 -0.09438354 0.30662805 0.0947435 -0.19327569 -0.060120616 -0.09874294 0.0047908486
-0.07998225 0.05766073 -0.12315546 -0.056629278 0.09243833 -0.109159656 -0.080087684 0.42732036
0.28328547 0.00066205516 -0.0057459297 0.24285896 0.14435683 -0.106584884 0.114508405 -0.11075034
-0.0625433 0.05620883 -0.22588594 0.29816428 -0.14568381 -0.27219498 -0.045257628 0.12777258
-0.11130854 0.01785284 -0.18379846 -0.039806552 0.114460476 0.012775224 -0.16657801 -0.12799004
0.08721069 0.14968723 0.18623756 0.0595051 0.24464856 -0.15996614 0.09446082 0.2697237
-0.17598008 -0.24203624 0.16262779 0.034113497 0.2009642 -0.0005653691 0.088874675 0.03626025
-0.029676303 0.11490134 0.16209312 -0.16032073 0.13568346 -0.35659027 -0.069835514 -0.21086952
-0.046960257 0.054122955 -0.1324669 0.36276114 -0.1074496 0.18370718 0.094716564 -0.23680638
-0.03762358 -0.14270727 -0.20539683 0.1998897 -0.11864372 0.17571361 -0.1528918 0.017020494
00000000: 25ef 4a3d 3f79 0c3c cd53 11be c13c 633e
00000010: ddfc 1f3e 6946 353b 2527 a5bd 011f c539
00000020: f7d2 23be 8371 b3bd e021 1a3e 8601 e23d
00000030: 25f8 f0bd d9f2 40bd 7bf9 3cbe 4ba8 943d
00000040: d966 fbbe 495b 353e 6a69 92be 2156 0f3e
00000050: 0431 cf3c a63b 7fbe 510c 383e ecc8 2fbd
00000060: 1329 23bd d5fa 333e 9121 6bbe 9e18 123b
00000070: 5519 72be 4560 723e 5a0e d23e 30bc bd3e
00000080: f1bd af3d 2ebf 33be fc60 b2bd 9e6a c43e
00000090: 7e14 1cbe 1bfe d03d 4c3a 1c3e cebe bab9
000000a0: 147d c9be 7e59 823e 39d0 873c 52ab ff3d
000000b0: cbcc 873e 091d 11bd 46ac 343e ece3 1bbe
000000c0: 9bf7 9bbd 568c 3d3d a7b5 203e 30c7 573e
000000d0: 5b22 d13c 75da b7bc 9fa5 4bbe 59d8 8ebe
000000e0: 830e 0dbe 49db 27be 0703 32be c10e 31be
000000f0: 06da aebd 5df4 12be 38c5 873d fd9f 9b3d
00000100: 1b72 5abe 6f3f d5bd 7115 48be 0f58 98bd
00000110: ac99 613d 43a3 e43d 2b4b bd3c e9d2 a93e
00000120: cf9e 7cbc 06e8 89bd b1e3 033e cfcf eebd
00000130: feab b9bd ae72 2f3e 1400 acbd 404c 493b
00000140: 4bbe 7d3e f253 623e ff0a 61bd 79ee 2c3e
00000150: b0fc 18be fe2a 01be 179d 143e fb5c cdbd
00000160: 4a1b 013c c682 acbd 21b6 9b3d 4ef9 5c3d
00000170: 9ccf 803e c156 583e f297 6fbe e627 903e
00000180: 8a07 4bbd 50fd 85bc 73b7 933d bcfc 0abe
00000190: c51a 253e 54e8 8b3d fcd5 403e 3910 da3d
000001a0: faf2 263d 2256 8a3e 1df9 b33d 668a d6bc
000001b0: b10d 283e 824d 6cbe f96a 9f3d 9bfb dabd
000001c0: c045 063e 5cbb 883d 74d4 5e3d b331 593e
000001d0: ca1b ddbd 4131 d83d b28a 093d 0b55 793e
000001e0: 95fa 81be a040 18be 9662 b93d 9507 753e
000001f0: d8a0 21be 9f1f a1bb ca63 13be a18b 163e
00000200: 61a7 79bc 5b66 42be 4f69 7dbd 3302 8f3d
00000210: 3118 653e ca86 a13e a642 ffbb dfb8 fe3c
00000220: d09b abbe 728e adbd 6a78 2cbe 27a0 0f3e
00000230: 1ccd 273e d0cb 1c3e 591f 1fbe 41be 8c3e
00000240: fed3 f93d 9a51 973e 5bff 693e e49f ec3e
00000250: 6b0b 623d 2cea 8f3c 7167 1c3d 3d9a 5bbc
00000260: 5ddf 02be c5f5 4bbe 9e80 07be e3b7 d0bd
00000270: 6910 603e c79d d4bd 3f47 1f3e 95a5 ec3d
00000280: 50f0 96bd 80fb a23e 1faf 00be d4a2 c73c
00000290: 0b25 59bd efd2 013e d2d2 133e 00c9 cb3d
000002a0: 1889 013d 58ce 2d3e 212e b43e 71a4 4f3e
000002b0: 4e35 7e3c 160f 4d3e 774f 7c3d b7de 4e3b
000002c0: e905 333e 284c c1bd 5afe 9c3e e108 c23d
000002d0: 10ea 45be 0941 76bd bd39 cabd 8dfc 9c3b
000002e0: bccd a3bd a82d 6c3d ee38 fcbd 1af4 67bd
000002f0: 4f50 bd3d 198f dfbd 0305 a4bd bcc9 da3e
00000300: cb0a 913e c58d 2d3a 5a48 bcbb 05b0 783e
00000310: 47d2 133e 2d49 dabd 6283 ea3d 13d1 e2bd
00000320: b416 80bd 3b3b 663d a54e 67be fda8 983e
00000330: 232e 15be 245d 8bbe 1060 39bd d1d6 023e
00000340: bbf5 e3bd 1e40 923c aa35 3cbe 320c 23bd
00000350: 416a ea3d 2c4f 513c 6d93 2abe d20f 03be
00000360: 859b b23d 9c47 193e 0fb5 3e3e 9fbb 733d
00000370: 2785 7a3e 2ace 23be ad74 c13d 3a19 8a3e
00000380: 1f34 34be 59d8 77be e687 263e 98ba 0b3d
00000390: 8fc9 4d3e 4735 14ba ed03 b63d a185 143d
000003a0: b81b f3bc 6551 eb3d bdfb 253e 1e2b 24be
000003b0: 9bf0 0a3e 0093 b6be ec05 8fbd 2eee 57be
000003c0: 6659 40bd 08b0 5d3d 67a5 07be d4bb b93e
000003d0: 890e dcbd bc1d 3c3e c2fa c13d 5f7d 72be
000003e0: 2f1b 1abd db21 12be 8c53 52be e3af 4c3e
000003f0: 7bfb f2bd 45ee 333e ab8f 1cbe 906e 8b3c

context_transformer_0/ffn_layer_3/intermediate_dense/einsum/Einsum;context_transformer_0/ffn_layer_3/intermediate_dense/Relu;context_transformer_0/ffn_layer_3/intermediate_dense/add f4 [32]
0.029068056 -0.06951892 -0.0072328774 0.023115471 -0.21714003 -0.25965828 -0.06208857 -0.090413675
-0.15948547 -0.191284 -0.19736126 -0.01008437 -0.064103775 -0.16870138 -0.106042914 -0.2725966
-0.13786142 -0.2422622 -0.35358232 -0.30282483 -0.088826895 0.012905544 -0.15111056 -0.33863404
0.050370183 -0.1390163 0.017908288 -0.19959661 -0.26044694 0.027185617 -0.11564469 -0.10907749
00000000: 2220 ee3c ef5f 8ebd c601 edbb a85c bd3c
00000010: f559 5ebe eef1 84be 9650 7ebd ce2a b9bd
00000020: 2950 23be f4df 43be 1219 4abe ea38 25bc
00000030: d748 83bd 0ec0 2cbe 072d d9bd c891 8bbe
00000040: 8b2b 0dbe 9513 78be be08 b5be db0b 9bbe
00000050: e0ea b5bd c671 533c babc 1abe 7161 adbe
00000060: f750 4e3d 4a5a 0ebe 67b4 923c 0e63 4cbe
00000070: 4d59 85be 5fb4 de3c 20d7 ecbd 0564 dfbd
